historic/fbref/football_match_predictor.pth (torch, 75148 bytes, 8 tensors)

agg_stats_fc.0.weight f4 [64, 179]
000000 f9 26 d6 bb f5 11 8c bd e2 bf 0f bd 7c 0f ac 3c
       -0.0065354076 -0.068393625 -0.035095103 0.021003477
000010 59 55 0d ba 69 ae 85 bd e1 b2 9c bb ef c8 b5 bc
       -0.0005391441 -0.06527407 -0.004782066 -0.02219054
000020 b0 bb 19 3d a0 4d 04 3d 23 36 03 3c 8f 2a e2 3b
       0.03753251 0.03230059 0.008008513 0.006902046
000030 04 00 10 3d 78 f4 3b bd 27 12 0e 3d 60 0a 24 bd
       0.035156265 -0.04588744 0.03468528 -0.040048957
000040 ce a8 50 3d eb f5 12 bc 02 d3 0b bd 50 6a 19 3d
       0.050942235 -0.008969764 -0.03413678 0.037454903
000050 28 cf 60 bd 63 e8 03 3d fd bb ff bc ee e5 19 3d
       -0.05488506 0.032204043 -0.03121757 0.037572794
000060 41 11 d4 bc d4 e9 44 3d 7f c4 88 3c 6f e4 32 3d
       -0.025887134 0.04807456 0.01669526 0.043674883
000070 03 8e 17 3d 58 ac b0 3c 08 e1 94 3d 94 bf 65 bd
       0.037000667 0.021566555 0.07269484 -0.056090906
000080 62 8f 57 bd 4c 0d 0f bc d3 af a9 3a eb d4 1c 3c
       -0.052626975 -0.008731198 0.0012946076 0.009572248
000090 13 56 8d 3c 86 4c 80 3d 47 48 a9 39 f4 ca d7 bc
       0.017252957 0.06264596 0.00032288043 -0.026341893
0000a0 35 01 86 3d 2e 33 83 bd 2b 91 47 bd 4b b3 df bb
       0.06543199 -0.06406246 -0.048722427 -0.0068267933
0000b0 d4 21 99 3d 77 72 9d 3c b8 9c a6 bc e7 fa 25 bd
       0.07477155 0.01921962 -0.020338401 -0.040522482
0000c0 28 f8 ed 3b d8 ed 12 3c 69 d1 32 3c bc 3e 3d 3d
       0.0072622485 0.008967839 0.010914185 0.046202406
0000d0 17 bf 8e bb f9 b1 64 bd 1a 46 d6 bc 19 1e a7 3b
       -0.004356276 -0.05583379 -0.026156474 0.0051000235
0000e0 0c 97 5d 3d e0 04 cc 3c 07 35 7b bd ac ff 2b 3d
       0.054099128 0.024904668 -0.061329868 0.041991875
0000f0 90 d5 7c bd 35 6a a1 bc b0 c0 48 bc f2 b9 7b 3d
       -0.061727107 -0.019703964 -0.0122529715 0.06145663
000100 77 31 8a bd 0d a5 c1 3c a4 ab 91 bd fb b4 94 3c
       -0.06747716 0.023638273 -0.07112816 0.018152704
000110 95 5d 31 3d d4 0b a8 3d 08 fa ba bc eb 16 6f 3d
       0.043302137 0.08205381 -0.022824302 0.058371466
000120 5d e2 f3 bc 17 fe 32 bc 95 eb 2b 3d d5 1d 97 3d
       -0.029771024 -0.010924838 0.041972715 0.07378737
000130 60 ad d3 bc 5e 1d 87 3c 87 34 8b bc 11 9e 48 3c
       -0.025839508 0.016493496 -0.01699282 0.012244717
000140 b6 72 12 bc 66 ad 46 ba dc 98 bc 3c 31 9f ef bc
       -0.008938482 -0.0007578939 0.023022108 -0.029250713
000150 1f ba 1f 3d ee d0 4e bd 9a f8 06 bd 3e d5 2d 3d
       0.03899586 -0.05049222 -0.03295193 0.04243969
000160 53 f9 3a bb 57 57 61 3d 6f f9 75 3c 2b ed 53 3c
       -0.0028529956 0.055014934 0.015013083 0.012934963
000170 7b fe 82 3c 3e 8f 7c bd 3c 06 e1 3c 3b 30 44 bd
       0.015990486 -0.061660044 0.027468793 -0.04789756
000180 93 5a 72 bd 9b 9b 1d bc 11 1b 84 bd 61 ec 52 3d
       -0.05916841 -0.009619619 -0.06450475 0.05149496
000190 3e 00 6f 3c 58 a0 a1 bc 6e be 24 bd a6 ab 48 3d
       0.01458746 -0.019729778 -0.04022067 0.04899182
0001a0 2c 5f 70 3d bf 24 a1 bc bb ae e8 bc b9 62 52 bd
       0.058684513 -0.019670842 -0.02840363 -0.05136368
0001b0 d6 b8 aa bb de 79 93 3d d4 71 88 bd 61 64 43 bc
       -0.0052100224 0.07200979 -0.06662336 -0.011925788
0001c0 e6 03 cc 3c a3 89 8c 3d 1a 35 ea 3c 3c 82 18 3c
       0.024904203 0.068621896 0.028589774 0.009308394
0001d0 23 cb 47 bd cd 40 c2 3c c5 1d 16 3d 21 65 7a bd
       -0.04877771 0.02371254 0.036649484 -0.0611316
0001e0 b0 80 3a 3d c0 2a bc 3c 41 e6 44 3d 8c 39 0f bb
       0.045532882 0.022969604 0.04807115 -0.002185437
0001f0 cc 01 8f bd 44 10 4d 3c bc 27 02 bd f7 a4 9b bc
       -0.069827646 0.012516085 -0.031776175 -0.01899956
000200 29 75 ca bc 10 92 18 3d fd 69 33 3d 68 b1 8f bd
       -0.02471407 0.03724867 0.04380225 -0.070162594
000210 4e 6e ab bc c1 88 2f bd 86 93 ed bc ef 9f 24 bb
       -0.02092662 -0.042855028 -0.029001009 -0.0025119742
000220 ed e4 c4 3c ef 97 45 bc 1f 1f 9f bd c1 1f a4 bb
       0.024034942 -0.01206015 -0.07769608 -0.005008668
000230 a1 78 62 3d c4 8b 6b 3d 84 8e 83 3c c6 c7 6f bd
       0.055290822 0.057506338 0.016059168 -0.05854013
000240 28 70 62 3d 31 40 a9 3c 33 ba 0e bd 16 31 88 bd
       0.05528274 0.020660492 -0.034845542 -0.066499874
000250 06 ae 39 3d ed 96 44 bd 90 bb 97 bd 48 71 8c 3d
       0.045331977 -0.047995497 -0.074088216 0.06857544
000260 06 bf 8e 3d 9f b5 78 3d ba b1 b5 ba 0d 2e 5e 3d
       0.069700286 0.060720082 -0.0013862171 0.054243136
000270 c2 76 9e 3c 0a ee 35 bd 7d 0e 28 bd 72 03 a0 3d
       0.019343738 -0.044416465 -0.041029442 0.07813157
000280 b6 57 41 bd 69 03 d5 bc d5 e4 93 bd 27 a7 85 bd
       -0.04720279 -0.026002603 -0.072213806 -0.065260224
000290 d5 a0 42 bd d5 c3 9d bd 0f 1f 40 3c 1b d2 1d bd
       -0.047516663 -0.077033676 0.011726155 -0.03853045
0002a0 a8 de 5b bd 20 2f ef 3c 51 12 0a 3d 77 c5 13 bd
       -0.05367914 0.029197276 0.033708874 -0.03607699
0002b0 23 91 38 3d 41 e8 92 3c 90 9d 64 bd b2 ab 5f bd
       0.04506029 0.017933013 -0.055814326 -0.0546071
0002c0 03 74 e7 3c a1 ac 86 bc 1d a6 41 bd 25 e6 1e bc
       0.02825356 -0.016439738 -0.04727756 -0.009698425
0002d0 7d da f3 bc d5 d2 8d bd 48 93 9a bc e2 bf 01 bd
       -0.02976727 -0.06924979 -0.018869057 -0.031677134
0002e0 2a 3b 0d bd 07 3c b2 3d 85 94 24 bd d0 9e d6 3c
       -0.03448025 0.087028556 -0.0401807 0.026198775
0002f0 08 c6 74 3d 18 7f b1 3d 40 d0 12 3c fb 20 90 bd
       0.05975917 0.08666819 0.0089607835 -0.070375405
000300 b2 81 45 3d ae 4b 74 bd f4 71 ba 3c 5c d4 1b 3d
       0.04821939 -0.059642486 0.022759415 0.03804432
000310 97 d3 97 3d 90 5b f9 3b 46 a8 de bc 9d 73 49 bd
       0.074134044 0.007609792 -0.027179848 -0.049182523
000320 56 63 55 bc 0e 41 b1 3c a5 75 d5 3c 51 c3 17 3c
       -0.013024172 0.021637466 0.026057074 0.009262876
000330 19 c7 23 3d 39 e0 17 bd 3a 21 bb 3d bc 0d ac 3d
       0.039984796 -0.03707907 0.09137197 0.08401057
000340 dd 3b c1 3c c5 24 b8 3d 27 be 44 bd 24 db 91 3d
       0.023588115 0.08991388 -0.048032906 0.07121876
000350 1f 29 4a bd 06 cf d7 bc c2 59 c3 3c 7b 68 45 3d
       -0.049355622 -0.026343834 0.02384651 0.048195343
000360 8c 6e 84 3c 3b 9c d4 ba a4 fc 21 bd de 56 34 3d
       0.016165994 -0.0016220877 -0.039547578 0.044028156
000370 81 a6 06 bd e4 0d cc ba ca 81 35 bd 3f 56 05 3d
       -0.032873634 -0.0015568105 -0.04431323 0.032552954
000380 df 48 bc 3c 49 86 00 bd 9c 1f 59 3d 40 35 dd 3b
       0.022983966 -0.031378064 0.05300866 0.0067507327
000390 43 cd c6 bc 78 7a 04 bd 24 df 01 bd d6 5c 6f ba
       -0.024267798 -0.032343358 -0.031706944 -0.000913096
0003a0 0f 80 50 3c 7a aa 5d bd 65 c1 e0 3c ce a9 32 bd
       0.012725844 -0.054117657 0.027435968 -0.04361897
0003b0 a5 f5 2f bb c0 f7 62 bd 17 45 0b bd 03 97 8e bd
       -0.0026849296 -0.055412054 -0.034001436 -0.06962397
0003c0 2b e8 ce bc e8 8c aa bc 5c ab 7b bd 7a e1 97 ba
       -0.02525719 -0.020819142 -0.061442718 -0.0011587583
0003d0 9c b2 61 3d 8c 2b 21 3c 7a 47 96 bc 9d 93 bb 3c
       0.055101976 0.009837043 -0.01834463 0.022897536
0003e0 56 e1 bc 3d c3 b8 35 bc c1 1e c1 3c 66 d7 25 bd
       0.09222667 -0.011091414 0.023574235 -0.040488623
0003f0 50 30 20 bd c2 93 48 bd 00 91 8c 3d cc b7 8e 3d
       -0.039108574 -0.048969038 0.06863594 0.0696865

agg_stats_fc.0.bias f4 [64]
000000 0c bd 02 3d 5a 0a 44 bc f2 f9 68 3c 03 87 4b bd
       0.03191857 -0.011965359 0.014219748 -0.049689304
000010 e2 6e dd bc 3f 7e 08 bd 8c 52 0e 3c 9f fa 04 3c
       -0.027030412 -0.033323523 0.008686673 0.008116393
000020 ec e4 3c 3d 8a 7b 20 bc 51 6c 37 bd 32 dd d5 bc
       0.046116754 -0.009795079 -0.044781033 -0.02610645
000030 78 73 b1 bc cd b5 09 bd 6f 4a bc bc 0f 98 9e 3d
       -0.021661505 -0.033620644 -0.022984711 0.077438466
000040 92 57 c5 3c 86 d4 4c bd b1 35 99 bc ea 95 b0 3d
       0.024089608 -0.050007366 -0.01870236 0.08622344
000050 a3 02 4d bd 98 b1 dd 3c 82 fd 65 3d 80 77 ed 3c
       -0.050051343 0.027062222 0.056149967 0.028987646
000060 ed bb 3f bd dc 81 65 bd 8e ad 35 3d fa 17 ad 3b
       -0.04681008 -0.056032047 0.044354968 0.0052823992
000070 e9 2e 71 3c 29 07 07 bd 01 1e 49 3c 15 0d eb 3c
       0.014720657 -0.032965813 0.01227522 0.028692761
000080 d6 49 10 bd a1 50 41 bd 72 ed 64 3d 78 48 85 3d
       -0.035226665 -0.047196034 0.055890508 0.06507963
000090 83 3d 42 3d a5 a9 0b bd d4 09 7d 3d 4c dd 7f 3d
       0.047421943 -0.034097333 0.06177695 0.062466905
0000a0 e3 f4 38 3c 55 01 50 3d e5 b6 8d bb e0 62 a8 3c
       0.011288854 0.05078252 -0.0043247812 0.02055496
0000b0 8c e3 5a 3d f5 3a 6b 3d b5 72 b5 3d 95 69 8c bc
       0.05343966 0.057429273 0.08859769 -0.01714019
0000c0 84 34 53 bb 96 65 41 3d 80 5e 49 3d 41 3d f5 3b
       -0.0032227347 0.04721602 0.049162388 0.0074841087
0000d0 20 b9 84 bd 3c a7 44 3d 38 7a 43 3d c2 eb 2c 3b
       -0.06480622 0.04801105 0.04772398 0.002638564
0000e0 aa 0c a5 3d ae 91 94 3d 63 45 93 bd 41 18 90 3d
       0.08059056 0.07254349 -0.07190969 0.07035876
0000f0 12 3d 1f bd f5 66 02 3b 71 03 95 3d 2f f3 ca 3b
       -0.0388766 0.0019897793 0.07276047 0.0061935405

agg_stats_fc.3.weight f4 [64, 64]
000000 9f 8b b8 3d b9 5b 84 3d b5 d5 41 3d 27 d7 b7 3d
       0.090110056 0.06462807 0.047322948 0.08976584
000010 b3 fe ed 3a 70 0c 44 3d e0 81 e2 3c a4 ae e2 3d
       0.0018157571 0.047863424 0.02764982 0.11068466
000020 d7 e8 2f 3d 08 5c a8 3a 1b 1b 14 bd 52 03 23 3c
       0.042946663 0.001284481 -0.036158662 0.009949522
000030 3c 15 82 3c d2 8b 92 3d 7d 84 ef 3d e5 40 f1 3d
       0.015879266 0.07155575 0.11695192 0.11779956
000040 99 74 c3 3d 6b 79 b1 bc 7b b7 75 bd a6 da a5 bd
       0.095437236 -0.021664342 -0.059989434 -0.080983445
000050 39 31 5e 3d 58 49 2a bd a5 af e3 3d c3 62 ba bd
       0.05424616 -0.041573852 0.11117486 -0.091008686
000060 25 e6 a0 3d 0f e5 78 3d f5 1e 0f 3d 8e 8f dc bd
       0.078563966 0.060765322 0.034941632 -0.107695684
000070 b7 e9 d3 3d f1 70 6c bd 34 9e df bc d2 56 fa 3a
       0.10347312 -0.057724897 -0.027297117 0.0019099361
000080 b9 b7 d7 bc f2 3f 2b bd 62 a4 f0 3c 61 e0 f6 bb
       -0.026332723 -0.04180903 0.029375259 -0.0075340723
000090 cc fe 8d bb 8f 56 ee 3d 53 b9 c6 3d 88 5a a1 3d
       -0.0043333527 0.116376035 0.097033165 0.078785956
0000a0 01 e5 5c bd 7e 93 5e 3b 13 eb 5c bd f7 2e ca bd
       -0.053929333 0.0033962424 -0.05393512 -0.09872239
0000b0 e7 70 b3 3d 64 ae fb bd 19 38 59 3d 9a e5 cb 3d
       0.08761769 -0.12289122 0.053032015 0.099559024
0000c0 15 f9 ab bb c3 e4 40 bd 4d db b2 bc ac cb 87 3c
       -0.0052481988 -0.047093164 -0.021833086 0.01657661
0000d0 95 bb b6 bd 18 e3 85 bb ac 83 98 3d 3a 4a c2 3c
       -0.08922497 -0.0040859096 0.074469894 0.023717035
0000e0 f7 74 92 bc f9 48 82 bb 1a ee a2 bd c2 e8 11 3d
       -0.017878039 -0.003975984 -0.079555705 0.035622366
0000f0 62 39 7a 3d 50 44 cc 3a c2 5b 25 3d ec fa ad bb
       0.06108988 0.0015584324 0.04037071 -0.0053094532
000100 0b b2 dc bd 83 3d b3 bd 23 72 5e 3d ee 9a bd bd
       -0.107761465 -0.08751967 0.054308068 -0.09258066
000110 74 e0 22 bd ce f0 ea bc 8c b0 d5 bc 80 1b 6f 3d
       -0.039764836 -0.028679278 -0.02608516 0.058375835
000120 30 cb 34 3d ee 05 dc 3d d6 cb c1 3d 42 ac 82 3d
       0.044139087 0.107433185 0.09462707 0.06380512
000130 65 86 0a 3b 2a 34 79 bd f5 47 ad 3d 67 70 00 bd
       0.0021137234 -0.060840763 0.0846099 -0.031357195
000140 f4 31 be 3d a6 fd e4 3d 04 20 c5 bd 36 1a fa 3c
       0.092868716 0.11181192 -0.09625247 0.030530076
000150 f4 c9 cb bd 55 8a 7f 3d 67 f3 a8 3a 17 88 e5 3d
       -0.09950629 0.062387783 0.0012889922 0.11207598
000160 43 c2 ca bd 42 db 84 bd 10 7e 94 bd 75 b8 6a bb
       -0.09900334 -0.064871326 -0.07250607 -0.0035815511
000170 26 b7 ae 3c 0e d3 d0 bd f0 28 21 b6 1f 17 a8 bd
       0.021327566 -0.101965055 -2.4014698e-06 -0.08207535
000180 a9 2f b1 3d ff 0d 67 bd af 00 86 3d 7d 21 17 bd
       0.086516686 -0.056409832 0.06543099 -0.03689717
000190 16 38 34 bd 7c c7 96 3d e1 0e dc bd 84 8b 23 3d
       -0.0439988 0.073622674 -0.107450254 0.039927974
0001a0 bc c8 0c bd d3 1f 25 3d 4f 8e 1b 3d 61 6f 22 3c
       -0.034371123 0.040313553 0.037977513 0.00991425
0001b0 c3 2b c6 bd fe f4 4f bb ba d7 b5 bd 54 61 f9 bc
       -0.09676316 -0.003173172 -0.08879037 -0.030441917
0001c0 98 c4 80 bd 03 ca 27 3d 5a 3f e4 3c 85 db c0 3c
       -0.06287497 0.040964138 0.02786224 0.023542175
0001d0 1f 57 0f bd 52 6c b4 3d 6d d3 b4 bd c1 9e c2 bd
       -0.034995195 0.08809723 -0.08829389 -0.09502936
0001e0 3c f1 6b 3d 6e bb 0d bd 2a 29 cb bc 25 df e5 bc
       0.057603106 -0.034602575 -0.024799902 -0.028060505
0001f0 13 0c c1 3d b9 b8 04 bd e8 bd 46 bd 8a 4c bf bc
       0.09426131 -0.032402728 -0.048520952 -0.023351926
000200 60 58 3b 3d fd ae 53 bd 91 cb d2 3c 68 fd 68 bd
       0.045738578 -0.051680554 0.025731834 -0.056882292
000210 7c 6e ff 3d 78 5f ac 3c b4 39 48 3d b3 d6 d2 3d
       0.12472245 0.021041617 0.048883155 0.10294857
000220 2b 2c ce bd 1d 4a a8 3d 8e cc 44 bc e5 14 cd 3c
       -0.10067018 0.08217261 -0.01201166 0.025034377
000230 73 a0 91 bd 07 12 e0 bd ac 8d 34 3d 94 19 c2 3c
       -0.071106814 -0.109409384 0.04408042 0.023693837
000240 b8 f0 98 bd b9 af 98 3d 4a e3 76 3d 19 cb 86 3c
       -0.074677885 0.074553914 0.060275353 0.016454266
000250 50 55 f2 bc 65 1a 84 bd 57 ee d2 bd d7 cf ee bd
       -0.029581696 -0.06450347 -0.10299366 -0.11660736
000260 a3 e6 b0 3c 06 db ae bd cf 9c de 3d be 98 a0 3d
       0.021594351 -0.08537869 0.108697526 0.07841633
000270 05 69 de 3c ac 74 65 bd 46 6d c6 bb 06 6a 9a bd
       0.027149687 -0.05601947 -0.006055507 -0.075397536
000280 35 48 a9 3d 00 4a cf 3d de 50 26 bc df 9c 91 bd
       0.082657255 0.10121536 -0.010151116 -0.07109999
000290 94 1b 91 bb 0b ef c9 3d ce 42 83 bd 18 be 08 bd
       -0.0044283364 0.09860047 -0.06409226 -0.033384413
0002a0 08 bf aa bd f9 1e e6 bc 79 b1 17 3c 5c f5 a0 bc
       -0.083372176 -0.02809094 0.009258621 -0.019648246
0002b0 af 89 e0 bd 9d e1 bd 3d 7c 1c ce 3d dd c3 10 3d
       -0.10963761 0.09271548 0.10064027 0.03534304
0002c0 f3 87 94 bd 1e 7d 7f 3d 42 00 43 bd 92 39 9a 3d
       -0.07252493 0.06237518 -0.047607668 0.07530512
0002d0 a4 a7 01 3e b5 2d c1 3d fa 58 f8 bd d5 bb a2 bd
       0.12661606 0.09432546 -0.12126346 -0.07945982
0002e0 3a b9 0b 3d 8f 0d f6 bd 89 12 c6 3d bd 3a 84 bd
       0.034112193 -0.12014305 0.09671504 -0.06456516
0002f0 30 f7 79 3d 3d 9a a7 3d 4d d2 e7 3d a2 6b f7 3d
       0.061026752 0.081837155 0.113194086 0.12081076
000300 1d ea 51 bb 40 46 d2 bd a9 35 6c bc 0d cd a8 3d
       -0.0032030412 -0.102673054 -0.01441709 0.08242235
000310 91 34 69 bd 34 4c b2 bd 90 01 ec bd e8 49 24 3d
       -0.056934897 -0.08705941 -0.115237355 0.040109545
000320 cb 32 a8 3d 91 11 af 3c f7 1a d8 3d 70 8e d7 3d
       0.08212813 0.021370681 0.10552018 0.10525215
000330 49 fc 82 3d 0c cf 12 bd 6c 3a e0 3c 1c db 95 bd
       0.06395776 -0.035841987 0.027371608 -0.073171824
000340 37 b5 db 3c 5f ac 92 bc cd 5f c3 3d fc 0f bc 3c
       0.026819808 -0.017904459 0.09539757 0.02295684
000350 19 51 97 bd ef a3 62 3d ea bb de bd ee ec 42 bd
       -0.07388515 0.05533212 -0.108756855 -0.047589235
000360 a3 8b b7 3d c5 ad 85 3d 30 74 00 be c3 a6 89 bc
       0.089621805 0.065272845 -0.12544322 -0.016803151
000370 d1 64 84 bd 4f a3 05 3e 2f 06 ae bd a0 d3 89 bd
       -0.06464542 0.13050579 -0.08497273 -0.067298174
000380 44 7e dd bc da a3 8a bc 14 0b 9d 3d c3 9e 3b 3c
       -0.027037747 -0.016923834 0.076681286 0.011451426
000390 fe b3 e7 bd 82 77 68 bd 4d d6 c8 bd 7d 5c a8 3d
       -0.11313628 -0.056754597 -0.098065 0.08220766
0003a0 55 1a db 3c 44 c3 8e 3d 3d 9b a2 39 0a 65 68 3d
       0.026745955 0.06970838 0.0003101471 0.056736983
0003b0 42 3a 3c bd a4 d8 c8 3c fd af 0e 3c 38 70 1f 3d
       -0.045953996 0.024517365 0.008708951 0.03892538
0003c0 6c a2 b8 3c 20 1a 76 3d b0 9c e3 3a 62 1b 9d ba
       0.022538386 0.06008351 0.0017365422 -0.001198631
0003d0 30 d8 fc 3c 90 77 e6 bd 0e e6 8f bd ef c8 aa 3d
       0.030864805 -0.112532735 -0.07026301 0.08339106
0003e0 b6 47 bf 3a 91 f0 5b bd 50 b0 ef 3d f7 f5 82 bd
       0.0014593515 -0.05369622 0.11703551 -0.0639457
0003f0 fe 08 5f 39 e3 2c 41 bc 87 0a 8e 3d 33 e6 aa bc
       0.00021270287 -0.011790487 0.06935602 -0.02086172

agg_stats_fc.3.bias f4 [64]
000000 60 ba 8f bb 4b 21 7b bd 76 37 ab 3d aa 7c 6a bd
       -0.0043862313 -0.061311048 0.08360188 -0.057247795
000010 ac c5 8c 3c 99 11 e1 bd 93 b5 f5 3d 87 1e e1 bd
       0.017184101 -0.109896846 0.11997523 -0.10992151
000020 a4 e5 ad 3c 0c aa 56 3c c1 f1 87 3d 8a d9 8c 3b
       0.021227665 0.013102066 0.06637908 0.0042983936
000030 7f 7d c6 bd 9c e8 cc 3c 43 2b f8 bd 50 44 cd bd
       -0.09691905 0.02501326 -0.121176265 -0.10022795
000040 52 3e c1 bd 4f 2b a4 bc 9a 05 49 bd a5 16 1c bd
       -0.09435715 -0.020040182 -0.049077608 -0.038107533
000050 82 61 18 3d e6 db 65 bd 01 9a 7f 3d 66 db 78 3d
       0.037202366 -0.056117915 0.06240273 0.06075611
000060 ce 0a b4 3d 72 11 0a 3e 67 5a df bc f0 6e 5c bd
       0.08791123 0.13483217 -0.027264787 -0.053816736
000070 bb ba 06 3e 8f a9 58 3d 60 3c e9 bd e8 79 c2 bd
       0.1315717 0.05289608 -0.11388469 -0.09495908
000080 44 23 0d 3e 90 0b 01 36 3c 5c 07 3d 33 e0 69 bd
       0.13782984 1.9229228e-06 0.033046946 -0.05709858
000090 67 c3 14 3d f5 43 06 be 4f c0 02 3c 17 e9 f1 3d
       0.036319163 -0.13111861 0.00798042 0.118120365
0000a0 12 f4 d7 3d a4 6c fe 3d 39 f8 b9 bd 41 52 54 bd
       0.105445996 0.12423065 -0.09080548 -0.051836256
0000b0 56 a6 6d bd c5 75 bd 3d a5 c9 d4 3d ef a2 8c bd
       -0.05801996 0.092509784 0.10390023 -0.068670146
0000c0 91 a2 18 3d 70 da 77 bd 5d 1b 44 bd 4b a4 d2 bd
       0.03726441 -0.060511053 -0.04787766 -0.10285243
0000d0 59 5a 24 3d 61 e4 8c 3c ba 30 9a bc f4 fb 80 3d
       0.040125225 0.017198743 -0.018822063 0.06298056
0000e0 a0 9c d0 bd fe ee 6e 3c 17 8d d0 bd 09 ab 5d 3c
       -0.10186124 0.014583347 -0.10183161 0.0135295475
0000f0 3f f0 85 bc 5e eb 6b bd 58 5b a0 3d 49 16 1a bc
       -0.01634991 -0.05759751 0.078299224 -0.009404727

fc_combined.0.weight f4 [32, 64]
000000 9f 8b bc bd 0b fb 96 bd c6 93 bb bd fe 7d e4 bc
       -0.09206318 -0.073721014 -0.09159045 -0.027892109
000010 a4 96 99 bd 0c 6d c8 3d e8 3a ff 3c 60 08 c4 bd
       -0.074994355 0.09786424 0.031156018 -0.0957191
000020 44 a9 02 be 11 07 4f 3c ae 5f 2e 3c 07 42 09 3e
       -0.12759882 0.012635962 0.010642929 0.13404094
000030 61 16 b7 3d af 0b 4c bd 00 21 14 bc d1 9e 01 3e
       0.08939815 -0.04981583 -0.009041071 0.1265824
000040 e9 a5 44 3d e2 33 64 3d fe 9d 48 3c 4e 76 08 bd
       0.048009787 0.05571354 0.0122446995 -0.03331595
000050 62 07 cf bd fe cc 7f bd a5 04 66 3d 88 71 bd bd
       -0.1010883 -0.062451355 0.056156773 -0.0925017
000060 b6 34 a1 3c 47 c7 36 3c 37 ac b5 bd f1 0d b9 bd
       0.019678455 0.01115591 -0.08870738 -0.09035862
000070 b8 ec 8d 3d 9b 69 d7 bd 05 db f0 3d 68 82 3b bd
       0.06929916 -0.105181895 0.11760525 -0.045778662
000080 75 27 99 3d 57 3f 4b 3d 06 93 ba 3c e6 62 f9 bc
       0.07478229 0.049620952 0.022775184 -0.030442666
000090 ac e3 20 3d 70 91 76 bd 73 13 9d 3d 25 77 01 bd
       0.039279625 -0.060197294 0.07669725 -0.031607766
0000a0 6b ef 88 bd 3c bd 5b bd 08 67 8f bd 78 67 ce 3d
       -0.0668629 -0.053647265 -0.070020735 0.10078329
0000b0 e9 70 c0 bc 42 82 da 3d 59 70 a0 bd 54 4f c0 bd
       -0.02349134 0.10669376 -0.078339286 -0.09390131
0000c0 94 47 0c bd a2 0c 0c 3d 79 a3 4b 3c ff 64 92 3b
       -0.03424795 0.034191735 0.012429112 0.004467606
0000d0 2a 36 af bc 3f d4 28 3c 95 4b 8e 3d e6 c4 dd 3c
       -0.021388132 0.01030451 0.0694801 0.027071428
0000e0 fc 4b 8b bc bd a8 c7 3d ab 27 5d 3d 58 c4 3e bd
       -0.017004006 0.09748981 0.05399291 -0.046573967
0000f0 09 9f e2 3d fc 3c 6c 3d 28 54 09 3e 4f b6 ad bd
       0.1106549 0.057675347 0.1341101 -0.08482038
000100 00 6c 83 bc 72 48 0e 3d 89 e8 e7 3d 05 66 6f bd
       -0.01604271 0.034737058 0.113236494 -0.058446903
000110 5b 0e 02 bd 4c 52 aa bd 44 f5 e2 3d 9b de ad bc
       -0.03175197 -0.08316478 0.11081937 -0.02122431
000120 1a 47 13 3d d1 9c db bd 2a 6f 9f bd ac 81 8a ba
       0.03595648 -0.1072327 -0.07784875 -0.001056721
000130 a9 63 aa bd e7 99 43 3c 50 4d 41 bc e4 95 38 3d
       -0.0831979 0.011938549 -0.011798218 0.04506482
000140 4a ce 89 bd c8 cd 14 3d 29 14 88 3d 35 00 a9 bd
       -0.067288 0.03632906 0.0664447 -0.082519926
000150 32 31 d7 bd 9e ed e2 3d c7 58 9f bd 28 be 43 3d
       -0.1050743 0.11080478 -0.07780605 0.04778877
000160 90 c5 9d bd 28 d7 c0 3d b0 a3 04 3a d6 cd 1b 3e
       -0.07703698 0.09416038 0.0005059792 0.15215239
000170 01 1d 8a 3d f1 d5 b7 bc 60 8a 5f 3c e8 68 0e bd
       0.06743813 -0.022440882 0.013643831 -0.034768015
000180 b6 41 8f 3d 97 45 d6 3d 9d 95 d9 3d ae 89 c1 bc
       0.06994955 0.10462492 0.106242396 -0.023625221
000190 70 73 1e 3d 59 1c bd 3d 01 70 a6 bd 88 a7 65 3d
       0.03868431 0.092339225 -0.08126832 0.056067973
0001a0 b2 8e b0 bd 22 f6 bc 3d 7f 37 e3 bd d1 24 0e bd
       -0.08620967 0.092266336 -0.110945694 -0.03470308
0001b0 8f de 06 3e b4 b3 22 bd aa 76 0c 3d a5 77 af 3d
       0.13170837 -0.03972216 0.034292854 0.08567742
0001c0 68 34 b8 3d 26 3f 73 3d d2 fa 9f 3b 93 cd 4b 3d
       0.08994371 0.059386395 0.004882195 0.049756598
0001d0 96 f6 7e 38 9b eb 23 3d 87 6a 4d bd 73 4d 0e 3d
       6.078797e-05 0.040019613 -0.05015042 0.03474183
0001e0 37 a1 d9 3d 7b 5c e8 bd 44 a5 e5 bd 72 1e cf 3d
       0.106264524 -0.11345764 -0.112131625 0.10113229
0001f0 02 11 78 bd eb b5 c0 3d 42 39 9d 3b ea c1 03 be
       -0.060563095 0.09409698 0.0047980854 -0.12866941
000200 99 00 5e bd 54 da ce 3d ef 0d 56 bd 7d 3d 14 3d
       -0.05419979 0.101002365 -0.05225938 0.036191452
000210 9f 0d c1 3b 19 b1 a0 bc 8b 7d bf 3d bd 3a 24 3d
       0.0058915163 -0.019615697 0.09350117 0.04009508
000220 15 aa 41 bd d2 ab 4b 3d 41 78 e3 3c e3 69 f9 3d
       -0.047281343 0.049724407 0.027767302 0.121783994
000230 d4 a1 15 3e 9c 78 86 3d b8 02 76 3c 4b d6 c3 bc
       0.14612514 0.06565973 0.015015297 -0.023905894
000240 1d 6a e3 bc c5 12 2b 3d 09 a4 0c 3d 5c 69 a3 3d
       -0.02776056 0.041765947 0.034336124 0.0797908
000250 04 30 5f bd 0a 8e d6 bd 58 bc e5 3d ef e5 ef 3c
       -0.05448915 -0.104763106 0.11217564 0.029284446
000260 c7 43 9c 3d a9 5c 81 bd 36 cb a4 bd 12 6d e9 3d
       0.07630115 -0.06316502 -0.08046572 0.11397757
000270 89 d7 92 bd c4 0d 11 bb 91 ef cc bd 00 7c a6 bd
       -0.07170016 -0.002213345 -0.10006631 -0.0812912
000280 22 f4 43 3c fa f0 e4 3d 8d 0f 1a bd a2 80 9a 3d
       0.011960061 0.11178775 -0.037612487 0.07544066
000290 fd 7c 85 bc 91 c1 a7 bd 53 34 af 3d d3 ab ad bd
       -0.01629495 -0.08191217 0.08554902 -0.084800385
0002a0 dd a9 18 3b 8e b7 d8 3d 5b bc aa bc 4d e4 99 bd
       0.0023294606 0.10581885 -0.020841768 -0.07514248
0002b0 0d d9 5e 3c cf 42 08 3e 5f 2a bf bd ff 89 58 bd
       0.013601554 0.13306735 -0.093342535 -0.05286598
0002c0 e3 bf d3 3d b4 50 fd bc 88 04 36 bd b4 b2 4f bd
       0.10339334 -0.030922271 -0.044437915 -0.050707534
0002d0 ec 49 0a 3e 44 ce 93 3d 06 01 11 3e b6 4c f2 3d
       0.13504761 0.072170764 0.14160547 0.11831038
0002e0 bd 6d e4 bd 54 5f 07 3e 72 ca 27 3d 12 cd b4 3c
       -0.111537434 0.13219959 0.04096455 0.022070441
0002f0 e3 b1 38 bc 5f 76 04 3e fc 69 0e 3e f1 c7 a0 bd
       -0.01127288 0.1293578 0.13907617 -0.07850636
000300 01 83 85 bd b6 99 37 bc d7 45 fc bc ce 6d 96 3d
       -0.06519128 -0.011206081 -0.030795021 0.07345162
000310 83 f6 d5 3c ed b1 a0 bd 3a 8a 47 bd e7 8d 41 bd
       0.026118523 -0.07846437 -0.048715807 -0.04725447
000320 81 91 c4 3b 4d 85 98 3d 9a c3 91 bb a9 a0 6a 3d
       0.0059987907 0.074473 -0.0044483664 0.057282124
000330 c5 18 e3 bd 48 4c 93 bb 9a f3 93 bc c8 d1 88 bd
       -0.11088709 -0.0044951774 -0.018060494 -0.066806376
000340 f1 f5 d3 bc 03 2b ba 3d a0 63 d6 bd 62 5c 9a bc
       -0.02587411 0.09090235 -0.10468221 -0.01884288
000350 9e 0a 57 3d 9f 3e 7a bd c8 56 73 3d 75 45 74 3d
       0.05250036 -0.061094876 0.059408933 0.059636552
000360 87 d2 31 3d ae d0 9e bd 55 84 1e bd 1a 5a 17 3d
       0.043413665 -0.07754646 -0.03870042 0.036951162
000370 32 8d 54 3d a0 72 62 bd 04 c8 92 bd a0 5a 7e bb
       0.051892467 -0.055285096 -0.07167056 -0.003881134
000380 0b 7d 45 bd 2b e8 88 bd ce 0b fe 3c 9c 24 8b 3d
       -0.048214953 -0.066849075 0.031011488 0.06794092
000390 96 ed 28 3d 7f bf 96 3d cb b2 4e 3d 66 ee 71 bd
       0.041242205 0.07360744 0.05046348 -0.059065245
0003a0 36 7d 95 3d 1d 1f e3 3c e8 0e b7 bc 21 7b cb bd
       0.07299273 0.027724797 -0.022345975 -0.09935594
0003b0 ae 70 f6 3d 7c d7 8b 3d b2 f5 96 bd c4 bd da bb
       0.12033211 0.0682821 -0.073710814 -0.006675454
0003c0 3f 1f cc 3d 34 c3 9c bd 11 c0 e4 bd 11 21 95 3d
       0.09966897 -0.076544195 -0.11169446 0.072816975
0003d0 5a 1f 83 3d 21 a2 39 bb 31 f5 bc 3c 23 eb 33 bd
       0.06402464 -0.0028325396 0.023066135 -0.043925416
0003e0 c1 51 55 bd f7 fc a4 bd 96 16 bc 3d 67 29 d4 3d
       -0.05207992 -0.08056062 0.091839954 0.10359459
0003f0 5a 04 ce 3d c2 13 ab 3d db e3 90 3d 49 f5 1d bc
       0.10059424 0.08353378 0.0707471 -0.009641

fc_combined.0.bias f4 [32]
000000 b2 17 58 3d 56 fd 8f bc 8f 3c 39 bd 89 53 aa bd
       0.052756973 -0.017576855 -0.04522377 -0.08316714
000010 46 63 69 3d d5 89 92 3c 34 43 dc bd a5 76 68 3d
       0.05697944 0.017887989 -0.107550055 0.056753773
000020 8b ee f4 3c 84 05 00 bd 9e b1 7b 3d 9b f2 9a 3c
       0.029898902 -0.03125526 0.061448686 0.018914511
000030 a8 fc 8c bd 8b 04 c9 bd 0b 28 ce 3d 97 ba b1 3d
       -0.06884128 -0.0981532 0.10066231 0.08678167
000040 48 28 bc 3d ad 7d b8 bc d3 be e5 3d 9b 2c ab bd
       0.091873705 -0.022520864 0.112180375 -0.08358117
000050 2a f0 ca 3d 7c f1 c8 bd f6 88 a3 bd 2d ad 7a bd
       0.09909089 -0.098116845 -0.079851076 -0.06120031
000060 b4 b3 13 3d dd 93 49 bd d8 0f b1 3c d1 23 80 3d
       0.03606005 -0.04921328 0.021614 0.062568314
000070 c0 48 f2 3d dc 37 5d bd dc 75 5a 3d 74 27 b3 3a
       0.11830282 -0.05400835 0.053335056 0.0013668374

fc_combined.2.weight f4 [3, 32]
000000 83 10 e2 bc c2 f0 77 3c a6 4d 0a be b7 b5 91 bd
       -0.027595764 0.015133085 -0.13506183 -0.071147375
000010 70 62 4c be 97 96 8b bd 43 06 a2 bd 30 cc 47 be
       -0.19959426 -0.06815832 -0.079113506 -0.19511485
000020 28 17 1a bd ca e9 9f 3b 49 aa af 3d 18 2d 46 be
       -0.03761974 0.0048801647 0.08577401 -0.1935314
000030 25 32 a5 3d b5 c2 03 be d9 a4 88 3c 7c 7a f9 3d
       0.08066205 -0.12867244 0.016680168 0.12181565
000040 80 bf f7 3d d2 de a3 3d a4 08 a2 ba 79 c3 48 3d
       0.120970726 0.08001484 -0.0012362194 0.049014542
000050 ec 5d 05 3e 1b c2 ac 3d d6 11 1a 3e 14 ce 43 3d
       0.1302411 0.0843546 0.15045866 0.047803953
000060 f1 66 ac bd 81 6f 16 be 65 0a 11 3e fc 94 18 3d
       -0.08418072 -0.14690973 0.14164121 0.037251458
000070 a9 c8 02 be a2 94 b1 3c 9f d7 47 be 59 f8 30 be
       -0.12771858 0.021677319 -0.19515847 -0.17282237
000080 fd 50 43 be 9f 36 36 3e 9f 4e 0d bc 75 64 25 bd
       -0.19073863 0.17794274 -0.008624702 -0.040379006
000090 64 54 f5 bc 15 a0 49 be 87 a3 72 3d 8e 70 6e 3d
       -0.029947467 -0.19689973 0.059237983 0.05821281
0000a0 da a9 24 be dc ab 2b 3b 9d aa d3 3c 7b b3 17 3e
       -0.16080418 0.0026194965 0.02583819 0.1481456
0000b0 13 04 20 be 01 a7 93 3d 22 76 06 3e 63 eb 31 3e
       -0.15626554 0.07209588 0.13131002 0.17374949
0000c0 e6 29 26 3e 94 3f a7 3d d5 88 ff 3d 9e 93 76 bd
       0.1622692 0.081664234 0.124772705 -0.060199372
0000d0 fc 33 7c 3d 5f d4 d1 bd 0b 3d 1e be 5b 40 74 3c
       0.061573014 -0.10245585 -0.15452974 0.014907922
0000e0 fc 53 3a 3e 6d fd 44 3e b2 11 97 3d d4 d1 8b 3d
       0.181961 0.192373 0.07376422 0.06827131
0000f0 e3 9b c8 bc c5 8f 37 be 12 8e 17 be 23 4a 3f 3e
       -0.024488395 -0.17925937 -0.1480029 0.18680625
000100 d6 ca 2f bc 2d e4 14 be 37 e1 2c 3e 01 bd 95 bd
       -0.010729512 -0.14540167 0.16882788 -0.0731144
000110 d6 02 c0 bd 0e 94 c2 3d 8e cc 7b 3d 2f f0 cf bd
       -0.09375541 0.095008954 0.061474375 -0.10153233
000120 32 9f d0 3d 9b e6 bb 3c df 71 46 3e 90 53 2a be
       0.10186614 0.02293711 0.19379376 -0.16633439
000130 88 31 36 3e a9 6f c6 3d 73 6d 3a be 21 f2 21 3e
       0.17792332 0.09689266 -0.18205814 0.15815021
000140 2f e2 59 bd ea f9 36 3e f2 ab 3a be d9 c2 fd 3d
       -0.05319422 0.17868772 -0.18229654 0.1239068
000150 af 27 c7 bd 18 45 de bd 8b 7b f7 bc 55 78 51 be
       -0.09724366 -0.10853022 -0.030210277 -0.2045606
000160 e8 20 d9 bd fd 25 17 be 46 7c 76 bd 05 31 60 bd
       -0.106019795 -0.14760585 -0.06017711 -0.05473425
000170 86 7f ba bc 65 19 0c 3e 38 cc 89 3d bd f3 78 bd
       -0.022765886 0.13681562 0.06728405 -0.060779322

fc_combined.2.bias f4 [3]
000000 91 66 9a bc b1 06 41 bd 58 6a a6 3b
       -0.018847736 -0.047125522 0.005078595
