streamlit_app/models/football_match_predictor_v1.pth (torch, 243056 bytes, 8 tensors)

weight f4 [128, 267]
-0.050482623 0.03798443 -0.021150636 -0.054702125 0.007678987 -0.053771 -0.061455235 -0.051285252
-0.03507675 0.020283759 -0.03006643 -0.03335374 -0.029752923 -0.028619036 0.0301731 -0.029646022
0.028260859 -0.021300856 0.0015360253 0.008101124 -0.034289166 0.003898122 -0.013511856 -0.012490788
-0.007802958 -0.04328338 -0.010285644 -0.0039420472 0.0036820313 0.028354213 -0.022825014 0.037536096
0.019441474 0.004639253 0.016421655 -0.0011827885 -0.004728195 -0.020621156 -0.03476791 0.014786334
0.0039661224 0.038476218 0.020157885 -0.03109449 -0.005390871 -0.0017297025 -0.014973633 -0.026834762
0.021408852 -0.025928967 -0.044950843 -0.04534247 0.045606006 -0.032175347 0.04262716 -0.044419296
0.017236192 0.01056926 0.04743775 -0.009223099 -0.017270647 -0.035424307 -0.019120362 0.007237803
0.0047104894 -0.042379975 -0.035221886 -0.02294594 0.021283673 -0.050845943 0.007412209 -0.0363339
0.013201556 0.05076514 0.018729895 -0.005662169 0.0268612 0.019269427 0.011881469 0.028409747
0.03764 0.025673296 0.031132983 0.0055912 0.04232151 0.028349005 0.060808063 -0.021422006
-0.013554885 -0.039505348 0.046792656 -0.021911861 0.0015854416 0.018666709 -0.036672387 -0.0024197192
0.04913783 0.028155724 -0.057840288 0.033527028 0.04894469 -0.02311267 0.038532514 0.04067411
0.04111583 0.060697902 0.027963713 -0.017431516 0.03308598 0.0122479005 -0.012602959 0.050131295
0.041778505 -0.0027521367 0.0020112775 0.015719146 0.017826006 0.005437477 -0.04287124 -0.0025696536
-0.04591853 0.03142385 0.030901715 0.020441383 0.022069246 0.029196845 -0.030539073 0.026859995
0.023361586 -0.016076932 0.03423147 -4.748601e-06 -0.033994548 -0.022169385 0.04610568 0.026720578
0.05471246 0.039993715 0.0605621 0.046087682 0.009163235 0.053372167 -0.012626499 0.017888451
0.056643143 -0.0007976184 -0.047960404 0.034235597 -0.0013678184 0.03461034 -0.050592765 -0.044402678
-0.0055640712 -0.036018755 -0.03140633 0.010039445 0.048656188 0.015838448 0.027395966 0.01877551
-0.055797197 0.018929346 0.049278803 -0.0351302 -0.04348446 0.03201821 0.020290881 -0.0550324
0.01949769 -0.027411476 0.00024195263 -0.021657793 -0.009792527 -0.010089282 0.018897464 -0.030363908
0.056318283 -0.022986434 -0.02099024 -0.04132087 -0.023240833 -0.024298334 0.039660282 -0.0007687733
0.044841748 -0.027039599 0.0025969453 -0.027285554 -0.03197926 0.0124968765 0.06282088 -0.018874938
0.00797617 -0.0005907441 -0.04383034 0.008933891 0.040591475 0.0019977074 0.0034737978 -0.055341024
0.021221241 0.02531972 -0.036872562 -0.034912005 0.03949221 0.029932778 -0.005583155 0.038642947
0.0049648527 -0.05346169 0.06449758 -0.026122022 0.02559702 -0.0039609964 0.050454244 0.030447578
0.0005570348 -0.03528152 0.0008063644 0.021410191 0.026458276 0.010429684 0.007371218 0.023462543
0.012723428 -0.044697132 -0.037160743 -0.02272744 0.012968545 -0.030872297 0.0153423175 0.044367503
0.033663463 0.024794998 -0.013808344 0.04463835 -0.022466727 -0.016894981 0.05462676 0.029497921
0.02424208 -0.02231562 0.055785093 -0.022316681 0.0039900243 -0.039985303 0.034292456 -0.0024903237
0.02975385 -0.05433779 0.022186479 -0.01632968 -0.021199577 0.038335767 0.028824776 0.032841794
00000000: dec6 4ebd 9095 1b3d 1944 adbc 560f 60bd
00000010: 03a0 fb3b fb3e 5cbd 7cb8 7bbd 7c10 52bd
00000020: a3ac 0fbd 202a a63c e04d f6bc ee9d 08bd
00000030: 67bc f3bc 7872 eabc 942d f73c 37dc f2bc
00000040: 5183 e73c 227f aebc 7554 c93a 94ba 043c
00000050: cc72 0cbd a377 7f3b d560 5dbc 29a6 4cbc
00000060: f5af ffbb ea49 31bd 1e85 28bc 4a2c 81bb
00000070: 3c4e 713b 1847 e83c 86fb babc 73bf 193d
00000080: ba43 9f3c e004 983b b586 863c cc07 9bba
00000090: f9ee 9abb b3ed a8bc cc68 0ebd 6142 723c
000000a0: 3ff6 813b 3d99 1d3d 2622 a53c dfb9 febc
000000b0: e7a5 b0bb 2fb7 e2ba f853 75bc 93d4 dbbc
000000c0: 9e61 af3c fc68 d4bc 601e 38bd 07b9 39bd
000000d0: 5dcd 3a3d 4cca 03bd d199 2e3d 02f1 35bd
000000e0: ea32 8d3c b12a 2d3c 164e 423d 7b1c 17bc
000000f0: 2c7b 8dbc 1419 11bd 4ea2 9cbc 182b ed3b
00000100: 735a 9a3b a096 2dbd d344 10bd 20f9 bbbc
00000110: 195b ae3c d643 50bd 1ee2 f23b dbd2 14bd
00000120: 574b 583c 1cef 4f3d 706f 993c b789 b9bb
00000130: 050c dc3c ebda 9d3c 7eaa 423c 8fbb e83c
00000140: 672c 1a3d ce50 d23c 990a ff3c 6336 b73b
00000150: 5259 2d3d 2c3c e83c e011 793d 347d afbc
00000160: 4f15 5ebc 5cd0 21bd a8a9 3f3d 8180 b3bc
00000170: 98ce cf3a edea 983c c935 16bd 2794 1ebb
00000180: c044 493d d5a6 e63c f0e9 6cbd a353 093d
00000190: 3a7a 483d c856 bdbc 45d4 1d3d e599 263d
000001a0: 1369 283d 5d9e 783d 2814 e53c 8acc 8ebc
000001b0: 2a85 073d 6bab 483c a47c 4ebc 7956 4d3d
000001c0: f01f 2b3d 315d 34bb a3cf 033b 70c5 803c
000001d0: d807 923c dd2c b23b c199 2fbd a267 28bb
000001e0: 1215 3cbd 4cb6 003d 9825 fd3c b074 a73c
000001f0: 90ca b43c 392e ef3c 142d fabc 7e09 dc3c
00000200: cc60 bf3c c5b3 83bc 4c36 0c3d 2c56 9fb6
00000210: de3d 0bbd 929c b5bc 4fd9 3c3d 1de5 da3c
00000220: 2c1a 603d 73d0 233d f70f 783d 70c6 3c3d
00000230: 6521 163c c69c 5a3d 60df 4ebc cd8a 923c
00000240: a402 683d 4417 51ba 2172 44bd a03a 0c3d
00000250: 5f48 b3ba 92c3 0d3d 5c3a 4fbd 95df 35bd
00000260: d052 b6bb 6788 13bd eda3 00bd 7c7c 243c
00000270: b64b 473d a2bf 813c 816d e03c 19cf 993c
00000280: 9a8b 64bd b711 9b3c 92d8 493d afe4 0fbd
00000290: c31c 32bd 8725 033d 1039 a63c a769 61bd
000002a0: 9fb9 9f3c 088e e0bc aab4 7d39 af6b b1bc
000002b0: d670 20bc 844d 25bc dbce 9a3c bbbd f8bc
000002c0: 00ae 663d 0c4e bcbc b9f3 abbc 1340 29bd
000002d0: 8f63 bebc 4d0d c7bc d272 223d 8187 49ba
000002e0: fbab 373d 2682 ddbc 8331 2a3b f485 dfbc
000002f0: affc 02bd b3bf 4c3c 3ca8 803d 9d9f 9abc
00000300: 7bae 023c 2adc 1aba 7187 33bd 745f 123c
00000310: 3f43 263d f8eb 023b a8a8 633b 45ad 62bd
00000320: 2bd8 ad3c 4d6b cf3c af07 17bd e4ff 0ebd
00000330: 95c2 213d 9635 f53c e6f2 b6bb 1148 1e3d
00000340: 34b0 a23b a5fa 5abd 4f17 843d dafd d5bc
00000350: d7b0 d13c 3fcb 81bb 1ca9 4e3d 336d f93c
00000360: f905 123a 5b83 10bd 3362 533a 6d64 af3c
00000370: 07bf d83c 44e1 2a3c 428a f13b 8534 c03c
00000380: ed75 503c 5714 37bd dd35 18bd e52e babc
00000390: 057a 543c e6e7 fcbc 585e 7b3c b3ba 353d
000003a0: b3e2 093d e11e cb3c 643c 62bc b4d6 363d
000003b0: 240c b8bc 5867 8abc 4fc0 5f3d a0a5 f13c
000003c0: 5497 c63c 3fcf b6bc e97e 643d 79d1 b6bc
000003d0: c0be 823b a1c7 23bd 3f76 0c3d b334 23bb
000003e0: 59be f33c 4d91 5ebd 6bc0 b53c d2c5 85bc
000003f0: bcaa adbc f705 1d3d f021 ec3c 1e85 063d

bias f4 [128]
-0.0058805738 0.037160452 -0.0066205454 -0.026505979 -0.028738394 -0.014223698 0.009144285 0.0027321402
0.015333942 0.020258004 0.017504811 -0.014179235 0.020943101 -0.010777234 -0.044901814 0.04358225
-0.005772764 -0.01831133 -0.024699843 0.016402293 0.011648454 -0.004227097 0.02098197 0.02192962
-0.01013486 0.011448417 -0.02516845 0.013302255 0.0051789694 -0.01822804 -0.03757897 0.013077378
0.008946814 -0.010351116 0.012588692 0.04319307 0.039418064 0.053043727 0.032700375 -0.027619831
-0.03679659 -0.024929438 0.033834994 -0.039585233 -0.0055002756 -0.008368106 0.032774873 -0.038659282
-0.023357328 0.04499125 0.048107546 -0.034939982 -0.03295862 0.03876674 0.0062699676 0.0010524119
0.013073741 0.018417751 0.060019776 0.0011245034 0.05401356 0.014593162 -0.030437533 0.017752552
0.057978988 -0.030317083 0.011129879 -0.03095167 0.010993804 0.02278248 -0.038868897 0.020197365
0.015565572 -0.010919248 -0.043978978 0.01912656 0.006991015 -0.027398856 -0.0065197325 -0.018546544
-0.042793557 0.016580539 -0.011456219 0.036861315 0.010916391 0.05003421 0.024424968 0.015764495
-0.010981417 -0.017218538 0.040343173 0.03331988 0.0563188 0.012277648 -0.049579013 0.031818435
0.018789789 0.024248544 0.048943613 0.013644169 -0.029562045 -0.026906144 -0.044557214 -0.008989816
-0.004584198 -0.012330358 0.047966585 -0.022644782 -0.010159132 0.0008257195 -0.03058335 0.016867839
-0.022919916 0.0003266166 0.05432198 0.03659368 0.02446207 0.023143996 0.014601565 -0.043604042
-0.0365193 0.014490325 0.03311356 0.035445772 0.059011143 0.008324972 0.03396095 0.013479098
00000000: d4b1 c0bb 8f35 183d 29f1 d8bb 1123 d9bc
00000010: c86c ebbc 830a 69bc e9d1 153c b50d 333b
00000020: 373b 7b3c 1df4 a53c 4066 8f3c 0650 68bc
00000030: de90 ab3c ff92 30bc f7ea 37bd 4d83 323d
00000040: 7429 bdbb a401 96bc 5357 cabc 1a5e 863c
00000050: 28d9 3e3c 7683 8abb 61e2 ab3c bfa5 b33c
00000060: af0c 26bc 2492 3b3c 112e cebc b4f1 593c
00000070: 58b4 a93b f852 95bc 68ec 19bd 8042 563c
00000080: a895 123c ba97 29bc cd40 4e3c 37eb 303d
00000090: d674 213d 6144 593d d4f0 053d fc42 e2bc
000000a0: 05b8 16bd d238 ccbc 9096 0a3d 2024 22bd
000000b0: a83b b4bb 611a 09bc f23e 063d 3259 1ebd
000000c0: de57 bfbc bf48 383d 6b0c 453d 3a1d 0fbd
000000d0: 9eff 06bd e0c9 1e3d 4d74 cd3b 15f1 893a
000000e0: 3f33 563c d3e0 963c 4cd7 753d 1364 933a
000000f0: 533d 5d3d 2818 6f3c 2258 f9bc cd6d 913c
00000100: 607b 6d3d 885b f8bc 195a 363c 5b8e fdbc
00000110: 5b1f 343c 53a2 ba3c fe34 1fbd f274 a53c
00000120: be06 7f3c a5e6 32bc 4d23 34bd 4eaf 9c3c
00000130: e214 e53b 9173 e0bc 7ba3 d5bb ecee 97bc
00000140: 4c48 2fbd e9d3 873c ddb2 3bbc e4fb 163d
00000150: aada 323c acf0 4c3d df16 c83c 8b24 813c
00000160: 67eb 33bc e40d 8dbc e23e 253d 6d7a 083d
00000170: 8bae 663d 3028 493c 5d13 4bbd 0c54 023d
00000180: 0bed 993c e2a4 c63c 1979 483d cb8b 5f3c
00000190: 1a2c f2bc 466a dcbc a081 36bd 054a 13bc
000001a0: 0a37 96bb 4505 4abc 9c78 443d 8d81 b9bc
000001b0: 7d72 26bc 1975 583a ef89 fabc 6c2e 8a3c
000001c0: 8cc2 bbbc bd3d ab39 b980 5e3d 41e3 153d
000001d0: ae64 c83c 7a98 bd3c 673b 6f3c 279a 32bd
000001e0: 4395 15bd d468 6d3c 16a2 073d 962f 113d
000001f0: abb5 713d 7765 083c a31a 0b3d 6fd7 5c3c

weight f4 [128, 128]
0.06520685 0.04884765 0.034226537 -0.017278455 -0.04484158 0.029101767 -0.01981313 0.054417823
0.017833695 -0.033297803 -0.039862595 -0.014053105 0.023256237 0.042649888 0.026813624 0.042761255
0.014799202 0.04030706 0.02119828 -0.036720112 0.011342897 0.014476036 -0.051378153 -0.015674256
-0.05503694 -0.021955777 0.009668769 0.02773475 0.028578835 0.0019373897 0.051370054 0.013662875
-0.03687372 -0.04246452 0.050104752 0.046062667 -0.043021794 0.010917287 -0.023682278 0.020934898
-0.02409512 0.06168268 0.059164718 0.015957296 -0.038075957 -0.04255327 0.011763067 -0.008989831
-0.0417972 -0.029653745 -0.03216437 0.013724384 0.028219199 0.017398998 -0.03994302 0.010748083
-0.039339267 0.0012364567 0.06373608 -0.017971754 0.022984238 -0.037069656 -0.0062468997 -0.017265346
-0.046625808 -0.013508302 0.041645832 0.00070850074 0.034625832 0.012374839 -0.031582437 -0.004375322
-0.04747242 0.04392231 -0.0036097267 0.007987051 0.04312261 0.017715925 -0.04979872 0.013955304
-0.03417494 -0.020864846 -0.03707176 -0.044762984 0.044961963 0.024227625 0.058804784 -0.0105227865
-0.025890639 0.050288748 -0.052263673 -0.04610557 -0.028118752 0.018917799 0.023495957 -0.031766176
0.033291943 0.0023329956 0.007725882 0.040197764 -0.014095873 -0.023784008 -0.024186868 -0.019087978
-0.014295359 -0.0009370026 -0.044349957 -0.0055583506 -0.035565045 0.006438993 -0.04363676 -0.00460331
0.04800921 -0.050043344 0.036365118 -0.019949492 -0.03635196 0.041348852 0.026343895 0.006584795
0.048352536 -0.047190767 -0.03232955 0.029792842 -0.055911675 0.055335622 0.029840972 -0.026411643
-0.04463362 0.028868029 -0.03842737 -0.01655357 -0.044700075 0.058821898 -0.0059865387 0.048571568
0.031070098 0.009054487 -0.027024658 -0.043483436 0.0019074122 -0.009012785 0.009529316 0.037872456
0.03066921 -0.018012421 0.0027716567 -0.02796158 -0.0062666354 0.032624263 0.012587777 -0.022679923
-0.033646 0.030928213 0.004645406 -0.04154753 -0.019867467 -0.045024768 -0.00031772483 -0.04501069
0.01966231 -0.01993177 -0.04214938 -0.02033391 -0.0016110578 -0.036570083 0.031397995 0.04539585
-0.004437043 0.058576897 -0.030871928 -0.013046127 -0.0035923938 -0.03386409 -0.038286645 0.014249394
0.029500285 0.01616632 0.03391726 -0.009782847 -0.013341697 0.041536883 0.0026011374 0.03968094
-0.035749603 -0.03595589 0.0030964979 0.022789292 0.0375624 -0.024155552 0.04464006 0.0067567406
-0.028885733 -0.011003305 -0.03038173 0.028023599 0.035327207 -0.026171606 -0.025591947 0.044139408
0.049847506 -0.0060171345 0.056961726 0.005617671 -0.05083873 -0.054226827 -0.04009164 0.0547564
0.04298561 0.014112621 -0.0153560275 0.046603803 0.004269415 0.0024113955 -0.03827148 -0.011873875
-0.036127098 -0.039798602 -0.0021769663 0.007378769 0.030299434 0.056312 -0.025657816 -0.017511021
0.013653188 -0.0029515335 -0.025528105 0.033651926 -0.03296885 -0.02479762 0.046437085 0.018230848
-0.043453567 -0.026333196 0.031971414 -0.049343854 0.017363418 0.005204627 0.04715452 -0.031103216
-0.03799099 0.025805816 -0.042836167 -0.035325196 0.031502765 -0.029733945 -0.040494993 0.02006125
-0.011191726 0.04924214 0.035508513 -0.047019333 0.014798462 -0.026776819 0.034208156 -0.01814067
00000000: 2b8b 853d 7914 483d 2031 0c3d 8c8b 8dbc
00000010: ceab 37bd d466 ee3c 254f a2bc 39e5 5e3d
00000020: f817 923c 4763 08bd f646 23bd ff3e 66bc
00000030: dd83 be3c a6b1 2e3d 3fa8 db3c 6d26 2f3d
00000040: 5a78 723c 0419 253d 04a8 ad3c d467 16bd
00000050: 8fd7 393c e52c 6d3c e671 52bd 4c67 80bc
00000060: 6a6e 61bd 9adc b3bc c269 1e3c fd33 e33c
00000070: 291e ea3c 03f0 fd3a 6869 523d 40da 5f3c
00000080: e608 17bd 47ef 2dbd a43a 4d3d 35ac 3c3d
00000090: 9f37 30bd 6cde 323c 5601 c2bc aa7f ab3c
000000a0: 2163 c5bc faa6 7c3d b456 723d e0b8 823c
000000b0: 89f5 1bbd 564c 2ebd e1b9 403c 164a 13bc
000000c0: 8a33 2bbd 69ec f2bc c9be 03bd 3ddc 603c
000000d0: f32b e73c 5888 8e3c 4b9b 23bd ba18 303c
000000e0: 3622 21bd 9a10 a23a 1088 823d 8039 93bc
000000f0: 7149 bc3c 5ad6 17bd cbb2 ccbb 0e70 8dbc
00000100: b4fa 3ebd ed51 5dbc d294 2a3d aeba 393a
00000110: d1d3 0d3d d6bf 4a3c 965c 01bd dc5e 8fbb
00000120: 7172 42bd e1e7 333d 2a91 6cbb 1fdc 023c
00000130: 55a1 303d fd20 913c bef9 4bbd caa4 643c
00000140: 06fb 0bbd c1ec aabc 8fd8 17bd 6459 37bd
00000150: 092a 383d 0379 c63c 49dd 703d c467 2cbc
00000160: 9b18 d4bc 93fb 4d3d 6f12 56bd 32d9 3cbd
00000170: 4c59 e6bc 80f9 9a3c 987a c03c 401d 02bd
00000180: 225d 083d 2ce5 183b 6529 fd3b 69a6 243d
00000190: 60f2 66bc aed6 c2bc 8a23 c6bc 645e 9cbc
000001a0: 1537 6abc 2ea1 75ba 4da8 35bd d322 b6bb
000001b0: a7ac 11bd 30fe d23b 76bc 32bd 5dd7 96bb
000001c0: 4ea5 443d 40fa 4cbd 97f3 143d 1e6d a3bc
000001d0: cbe5 14bd 6a5d 293d 27cf d73c 44c5 d73b
000001e0: 4f0d 463d 1b4b 41bd fd6b 04bd 1e10 f43c
000001f0: a403 65bd 9ba7 623d 0e75 f43c 3b5d d8bc
00000200: bed1 36bd a57c ec3c 0566 1dbd 5a9b 87bc
00000210: 6d17 37bd 3bef 703d ba2a c4bb fbf2 463d
00000220: b886 fe3c 4559 143c d162 ddbc b01b 32bd
00000230: 2202 fa3a 5caa 13bc d920 1c3c 2620 1b3d
00000240: ff3d fb3c c98e 93bc afa4 353b af0f e5bc
00000250: 5958 cdbb 05a1 053d f73c 4e3c 3fcb b9bc
00000260: 63d0 09bd 2a5d fd3c 7d38 983b be2d 2abd
00000270: 19c1 a2bc e46b 38bd 4e94 a6b9 215d 38bd
00000280: da12 a13c f447 a3bc d4a4 2cbd 4d93 a6bc
00000290: 212a d3ba 83ca 15bd 2f9b 003d 00f1 393d
000002a0: 9d64 91bb 54ee 6f3d 20e7 fcbc 6cbf 55bc
000002b0: 5e6e 6bbb 12b5 0abd 75d2 1cbd 4a76 693c
000002c0: 95aa f13c 3b6f 843c d3ec 0a3d 3c48 20bc
000002d0: 2297 5abc 9422 2a3d d877 2a3b 7b88 223d
000002e0: 2d6e 12bd 7c46 13bd 9dee 4a3b 9cb0 ba3c
000002f0: 08db 193d dde1 c5bc 7fd8 363d a667 dd3b
00000300: c6a1 ecbc 3547 34bc 1be3 f8bc bf91 e53c
00000310: 43b3 103d d665 d6bc 34a6 d1bc 86cb 343d
00000320: e62c 4c3d 622b c5bb b350 693d 7114 b83b
00000330: 463c 50bd f31c 5ebd 2237 24bd 3f48 603d
00000340: ae11 303d 9f38 673c d997 7bbc a1e3 3e3d
00000350: 73e6 8b3b 8108 1e3b 8ec2 1cbd a48a 42bc
00000360: 02fa 13bd dc03 23bd 6fab 0ebb 9ac9 f13b
00000370: 8536 f83c 69a7 663d 5730 d2bc 4673 8fbc
00000380: 9fb1 5f3c 846e 41bb 5120 d1bc 9ad6 093d
00000390: 580a 07bd 6124 cbbc d034 3e3d dc58 953c
000003a0: 5efc 31bd b7b8 d7bc 75f4 023d c81c 4abd
000003b0: ba3d 8e3c 938b aa3b 1925 413d 2ccc febc
000003c0: 719c 1bbd b866 d33c fa74 2fbd 27b1 10bd
000003d0: 0b09 013d 9a94 f3bc 14de 25bd 7e57 a43c
000003e0: 805d 37bc 20b2 493d 6071 113d 5897 40bd
000003f0: 4075 723c 0f5b dbbc da1d 0c3d be9b 94bc

bias f4 [128]
0.025716959 -0.019543683 0.016274426 -0.046613116 -0.056015693 -0.044531 0.02949446 -0.053672083
-0.019700518 0.04220306 -0.009761089 -0.0056571695 0.010755519 -0.028172802 0.048280805 -0.056761302
-0.016467653 -0.0045510787 0.08729928 -0.024172721 -0.012215109 -0.005222054 0.0773803 -0.025308013
0.035765026 -0.017105017 -0.05604178 0.0020393138 0.00077397283 -0.08053737 0.014284526 0.05557012
0.08336986 -0.038326733 -0.017543325 0.05430158 -0.019416254 0.05747013 0.021254055 -0.0554443
0.010318433 -0.013163306 -0.054080676 -0.0028077806 -0.06399688 0.0042103264 -0.072329305 0.012574665
0.07226172 0.044298135 -0.059427444 -0.009079008 0.009848546 -0.026866777 0.02482122 -0.030168358
-0.022687914 0.065559365 0.071582004 0.009981073 -0.004038728 -0.04823685 0.012179792 -0.049906604
-0.003468213 0.025898159 -0.035052 -0.0040372284 -0.046972003 -0.017095435 -0.048089165 -0.0328011
0.013155686 0.08144462 0.0045267963 -0.056542546 0.03544411 0.03027861 -0.057502408 0.06709653
0.08513216 -0.02781264 -0.01744297 -0.01848613 0.056072216 0.045262277 0.07137369 0.076616384
0.04910407 -0.043004803 0.0059689293 -0.04408806 0.007662547 -0.0064595295 -0.048636194 0.061672136
0.04568578 0.023286039 -0.039923113 -0.029173536 0.019784713 0.0014236167 0.052712712 -0.030593816
-0.029103203 0.056554336 0.029238012 0.04161366 -0.01796892 0.04641999 -0.02004472 0.0782102
-0.021533728 -0.0600237 0.08393211 0.047036115 0.050674565 -0.0073162103 0.0038056534 -0.05513614
0.06005766 0.0158496 -0.043190226 -0.05960823 0.041884027 -0.043877844 0.03566845 0.020527149
00000000: 5fac d23c 131a a0bc f251 853c 65ed 3ebd
00000010: b670 65bd 2366 36bd 5e9e f13c 42d7 5bbd
00000020: fb62 a1bc 1edd 2c3d faec 1fbc c75f b9bb
00000030: eb37 303c a6ca e6bc 18c2 453d 8a7e 68bd
00000040: 2ce7 86bc 3721 95bb f7c9 b23d df05 c6bc
00000050: e121 48bc c41d abbb 9079 9e3d c052 cfbc
00000060: 597e 123d d21f 8cbc 118c 65bd 02a6 053b
00000070: 70e4 4a3a c7f0 a4bd a509 6a3c 7f9d 633d
00000080: d1bd aa3d 7efc 1cbd 05b7 8fbc 556b 5e3d
00000090: d60e 9fbc cd65 6b3d fc1c ae3c 9019 63bd
000000a0: a50e 293c e8aa 57bc b383 5dbd be02 38bb
000000b0: cc10 83bd c7f6 893b 6321 94bd f805 4e3c
000000c0: f4fd 933d f671 353d 316a 73bd 1fc0 14bc
000000d0: cc5b 213c b717 dcbc df55 cb3c a223 f7bc
000000e0: 01dc b9bc fd43 863d 9699 923d a887 233c
000000f0: 4e57 84bb 0194 45bd c08d 473c de6a 4cbd
00000100: f54a 63bb 6028 d43c b092 0fbd ba4a 84bb
00000110: b765 40bd ba0b 8cbc 25f9 44bd 725a 06bd
00000120: f28a 573c 70cc a63d 8555 943b 2899 67bd
00000130: d82d 113d d90a f83c a587 6bbd e869 893d
00000140: c559 ae3d 55d7 e3bc 8fe4 8ebc 3970 97bc
00000150: fbab 653d f064 393d 5f2c 923d 0de9 9c3d
00000160: 5921 493d ce25 30bd 0297 c33b ae95 34bd
00000170: 1a16 fb3b 76aa d3bb bf36 47bd ec9b 7c3d
00000180: 0321 3b3d 5dc2 be3c 6b86 23bd 57fd eebc
00000190: 8d13 a23c a698 ba3a 49e9 573d e29f fabc
000001a0: d769 eebc 85a5 673d 8e84 ef3c 1673 2a3d
000001b0: 8e33 93bc e322 3e3d d334 a4bc ab2c a03d
000001c0: 8067 b0bc 69db 75bd 99e4 ab3d f1a8 403d
000001d0: 2290 4f3d d2bc efbb 4568 793b 6fd6 61bd
000001e0: 05ff 753d 05d7 813c 3ce8 30bd c227 74bd
000001f0: 968e 2b3d 41b9 33bd 1519 123d 8d28 a83c

weight f4 [64, 128]
0.0006891902 0.0021015727 0.0032129972 -0.0031505686 0.004460189 0.0044746613 0.0027318806 0.004112552
0.00021297246 0.00077838724 -0.018198384 -0.0002999992 -0.0029134345 -0.0027014397 0.015835062 0.003332235
-0.010375361 -0.009510321 -8.793186e-05 -0.004353072 0.009377313 0.021847088 0.014828833 0.0009581461
-0.018670883 0.0019335847 0.01891582 0.0031476473 -0.0028672456 -0.0052476902 0.011989739 -0.012406615
-0.0022853406 0.01998243 0.00054538366 -0.005377385 0.005098319 0.0020056667 0.0007434043 0.0065069613
-0.019245345 -0.00233438 -0.006005118 -0.003089036 -0.0038807944 0.0036417674 -0.0063157585 0.0027080902
0.02135094 -0.012826689 0.010262677 -0.0007006754 -0.0040585906 -0.022232616 -0.0042572008 -0.0039174566
0.0050987615 0.00097318686 0.00010590225 -0.00093200506 0.00448476 -0.0013055988 0.0061070807 -0.0019736541
0.025292851 -0.0086115375 0.0033409283 0.006225179 7.789134e-05 -0.0027930096 0.0005684397 0.001132925
-0.008574022 0.0004618002 -0.017388957 0.01003671 0.004810181 -0.013773218 -0.0011511322 0.0078313975
-0.0052663204 0.0024874327 -0.005546832 0.0010184932 0.019729123 0.02100522 -0.015194651 0.0029041397
0.0059331413 -0.0008989773 -0.00014185745 0.014088582 0.02098992 -0.0071144695 -0.004141984 0.014066948
0.0021359553 -0.0070571266 -0.004048564 0.00014364671 0.013494503 0.000887649 -0.013736083 0.0025252188
-0.011817874 -0.023275899 -0.012638581 0.00308999 -0.0018796972 0.006864526 -0.031213798 -0.014314001
0.02927096 -0.005702658 0.00998846 0.013431027 -0.005287498 0.00039547682 -0.0038899758 -0.0102124885
-0.0055323513 9.192821e-05 0.0016475274 0.0021639676 -0.00031842067 -0.00915631 0.0007863857 -0.018809296
-0.014333593 -0.025299646 0.059849452 0.061757885 -0.033300735 -0.03701696 0.02754027 -0.04627328
-0.008849835 0.035226878 0.004276646 0.011458402 0.04763434 -0.0057433597 -0.044554632 -0.033303574
-0.037987757 -0.053610556 0.045356438 -0.028892504 -0.03344477 0.039095245 0.06788578 -0.009467501
-0.0006894514 0.066054285 -0.0030637681 -0.0102302795 0.045027833 -0.035292823 -0.03959592 -0.011275594
0.043246254 0.0044076564 0.03779604 0.05357752 0.04040657 -0.03740012 0.019446107 0.032114837
-0.028600575 -0.01801737 -0.021205457 0.014197376 0.05624887 0.02554916 0.05150729 0.040283147
0.03710946 0.02385499 0.065338686 0.051095538 -0.021226013 -0.05288334 0.0014443303 0.0058334325
0.005628146 -0.0009233991 -0.04004522 -0.027875002 0.032549463 0.02202005 0.01169732 -0.026909348
0.03214072 0.04805805 0.00037882698 0.02894419 0.015340624 0.012110326 -0.013896897 0.0038704542
0.010982451 -0.04743769 0.07743254 -0.016869083 0.049895138 -0.040625192 -0.042570364 0.045556255
0.007425787 0.027435724 -0.038440492 -0.01801816 -0.056463137 0.025157133 0.012116125 -0.008026966
0.045663416 0.012294 -0.010816099 -0.017023157 0.042732444 0.046548445 -0.016056543 -0.017696274
0.0050905854 0.032852247 -0.05523617 0.027014885 0.01447382 -0.009670407 0.013599682 -0.019268572
0.00524132 0.064997904 0.06307913 0.041946515 0.018922634 0.05199178 0.0371179 -0.0010728537
0.060993236 -0.019575961 0.06886005 0.06864598 -0.042812347 0.018631952 0.021108678 0.04537053
-0.052301757 0.01678642 0.02813141 0.022047348 -0.0038954213 0.025769904 -0.024650415 -0.019509047
00000000: c5aa 343a 8aba 093b 2691 523b c579 4ebb
00000010: c726 923b 2ea0 923b 5a09 333b 96c2 863b
00000020: 5c51 5f39 af0c 4c3a c714 95bc 3649 9db9
00000030: 52ef 3ebb a30a 31bb 88b8 813c a061 5a3b
00000040: 6bfd 29bc 2dd1 1bbc 0f68 b8b8 37a4 8ebb
00000050: 4da3 193c aaf8 b23c a2f4 723c 192c 7b3a
00000060: aef3 98bc 5670 fd3a 5af5 9a3c c248 4e3b
00000070: 66e8 3bbb d1f4 abbb 9c70 443c 1d45 4bbc
00000080: a7c5 15bb 31b2 a33c 14f8 0e3a c634 b0bb
00000090: cd0f a73b 8171 033b 05e1 423a 5938 d53b
000000a0: 6aa8 9dbc 66fc 18bb 95c6 c4bb 6d71 4abb
000000b0: ed54 7ebb b8aa 6e3b 6cf4 cebb 377a 313b
000000c0: 2be8 ae3c 0827 52bc ca24 283c 88ad 37ba
000000d0: edfd 84bb 2d21 b6bc fd7f 8bbb 025e 80bb
000000e0: 8313 a73b 771d 7f3a d617 de38 cd51 74ba
000000f0: e5f4 923b a020 abba e81d c83b 6c58 01bb
00000100: f432 cf3c 6817 0dbc 7af3 5a3b 96fc cb3b
00000110: 9859 a338 ed0a 37bb 5803 153a a87e 943a
00000120: 0e7a 0cbc c61d f239 4973 8ebc 0371 243c
00000130: b99e 9d3b 10a9 61bc 96e1 96ba 434f 003c
00000140: 1991 acbb 3204 233b 33c2 b5bb f67e 853a
00000150: f89e a13c 2413 ac3c fcf2 78bc 6153 3e3b
00000160: cc6a c23b 58a9 6bba 92bf 14b9 ccd3 663c
00000170: 0df3 ab3c 7f20 e9bb 7bb9 87bb 0e79 663c
00000180: 62fb 0b3b 783f e7bb d1a9 84bb df9f 1639
00000190: 0c18 5d3c 1eb1 683a 4f0d 61bc 247e 253b
000001a0: c29f 41bc 19ad bebc 0d12 4fbc 6e81 4a3b
000001b0: 2c60 f6ba d1ef e03b 14b4 ffbc 4685 6abc
000001c0: a7c9 ef3c 5ddd babb a3a6 233c cf0d 5c3c
000001d0: bf42 adbb 0058 cf39 f7ee 7ebb 4852 27bc
000001e0: ba48 b5bb 95c9 c038 d9f1 d73a 5ad1 0d3b
000001f0: b3f1 a6b9 5904 16bc 7325 4e3a f415 9abc
00000200: 72d7 6abc 3441 cfbc b324 753d d6f5 7c3d
00000210: 5a66 08bd 199f 17bd 229c e13c 0d89 3dbd
00000220: e6fe 10bc 0f4a 103d 1b23 8c3b 05bc 3b3c
00000230: 3a1c 433d cb32 bcbb eb7e 36bd 5469 08bd
00000240: 0d99 1bbd be96 5bbd acc7 393d f9af ecbc
00000250: 62fd 08bd 5622 203d b307 8b3d 941d 1bbc
00000260: 4dbc 34ba 7847 873d 80c9 48bb e79c 27bc
00000270: 1b6f 383d 358f 10bd 552f 22bd 45bd 38bc
00000280: fc22 313d 1a6e 903b 05d0 1a3d 1a74 5b3d
00000290: 5c81 253d de30 19bd 714d 9f3c d98a 033d
000002a0: c14b eabc 2a99 93bc 11b7 adbc 1c9c 683c
000002b0: 3765 663d 794c d13c 4ff9 523d f1ff 243d
000002c0: 1700 183d 8a6b c33c 4ad0 853d 8e49 513d
000002d0: 2de2 adbc 339c 58bd af4f bd3a 6126 bf3b
000002e0: 506c b83b 4410 72ba 7506 24bd 1e5a e4bc
000002f0: 9652 053d 6463 b43c 1ea6 3f3c fe70 dcbc
00000300: fda5 033d 85d8 443d 4c9d c639 5e1c ed3c
00000310: 3e57 7b3c 646a 463c d0af 63bc 72a7 7d3b
00000320: bdef 333c 064e 42bd f494 9e3d 0831 8abc
00000330: d85e 4c3d 9a66 26bd 435e 2ebd 3299 3a3d
00000340: 0454 f33b e2c0 e03c c773 1dbd d29a 93bc
00000350: e445 67bd 5516 ce3c b682 463c 8983 03bc
00000360: 9009 3b3d c66c 493c 0236 31bc 2674 8bbc
00000370: 3708 2f3d 95a9 3e3d 0389 83bc c7f7 90bc
00000380: edce a63b 1490 063d 523f 62bd 524e dd3c
00000390: 9a23 6d3c a070 1ebc 33d1 5e3c 20d9 9dbc
000003a0: 61bf ab3b 9f1d 853d a22f 813d 1cd0 2b3d
000003b0: a403 9b3c 55f5 543d f008 183d ff9e 8cba
000003c0: 0bd4 793d c45d a0bc 7f06 8d3d 4396 8c3d
000003d0: 005c 2fbd 09a2 983c 1bec ac3c 73d6 393d
000003e0: 5e3a 56bd ad83 893c d873 e63c a49c b43c
000003f0: 534a 7fbb 681b d33c abef c9bc 70d1 9fbc

bias f4 [64]
0.014021886 -0.0025224588 -0.047153078 -0.025907353 0.00535752 0.027409172 -0.010966867 0.025796175
0.079827785 -0.061760955 0.042215545 -0.07104145 -0.051048834 0.0005224639 0.07140177 -0.045052785
0.08529294 -0.011527962 0.06796076 -0.036302272 0.04215307 0.01743121 -0.021114372 -0.032981206
0.008832542 -0.0065324483 -0.027491545 -0.04805842 -0.032432526 -0.036875524 0.009878438 0.07281818
0.037825555 0.046011955 0.014533986 0.03852843 0.07414036 -0.00065402436 -0.017575135 -0.01941224
-0.009655135 -0.039905544 0.008902713 -0.026786286 0.025314238 0.035694137 0.047558777 -0.02322509
-0.018434737 -0.043898154 0.03580164 -0.04764071 0.00046256595 0.03047251 -0.003928318 0.005171751
0.06353664 0.007222729 -0.06726695 0.045096815 -0.009911703 -0.00087654736 -0.009765644 -0.018123945
00000000: 0dbc 653c d64f 25bb 9623 41bd a83b d4bc
00000010: 238e af3b 3389 e03c 60ae 33bc 8052 d33c
00000020: c07c a33d 0ef9 7cbd 35ea 2c3d 2e7e 91bd
00000030: 9518 51bd f5f5 083a 173b 923d 4589 38bd
00000040: 11ae ae3d c7df 3cbc 032f 8b3d b1b1 14bd
00000050: b3a8 2c3d e6cb 8e3c 0cf8 acbc 4d17 07bd
00000060: 5eb6 103c 260e d6bb f335 e1bc e8d8 44bd
00000070: f8d7 04bd ca0a 17bd 2cd9 213c b321 953d
00000080: f8ee 1a3d 0877 3c3d f51f 6e3c fdcf 1d3d
00000090: e7d6 973d d572 2bba bbf9 8fbc 6b06 9fbc
000000a0: 9230 1ebc ff73 23bd afdc 113c ea6e dbbc
000000b0: ce5f cf3c 0434 123d fecc 423d 8b42 bebc
000000c0: 7204 97bc 8dce 33bd bea4 123d e822 43bd
000000d0: 8d84 f239 7ca1 f93c 1fb9 80bb cb77 a93b
000000e0: 7f1f 823d a4ac ec3b 41c3 89bd 70b7 383d
000000f0: b264 22bc 19c8 65ba 1400 20bc ab78 94bc

weight f4 [3, 64]
0.01619125 0.103678666 0.01682204 -0.0438235 -0.020679843 -0.11860448 -0.09767471 0.066468865
-0.013852874 0.11594073 -0.011676715 -0.030337328 0.092384554 -0.104638 0.0046629473 -0.08798365
-0.106645785 0.088515505 -0.07765056 -0.07577862 -0.07512614 0.011233135 0.036998063 0.007163015
-0.10782752 -0.050206274 0.031252287 0.035514764 -0.019030847 -0.076561674 -0.081954524 0.022335425
-0.10102598 -0.078030445 -0.030300176 0.047035884 -0.12237447 0.030820427 -0.035592485 0.07535863
-0.07564449 0.05893811 -0.012715653 -0.07594957 0.005951604 -0.12757629 -0.024795836 0.035871685
-0.08954314 -0.0863535 0.110816516 -0.02432388 -0.07352819 0.09630184 -0.01556174 0.045808688
-0.028324448 -0.005289072 0.017628457 0.011179569 -0.060414765 -0.048758373 0.044123407 -0.029508729
-0.0044877636 0.06763832 -0.101668976 -0.12756322 -0.0042464538 0.034064084 0.12854828 0.015948106
-0.12835146 0.13434878 -0.05347324 -0.039242815 0.016816845 0.07324006 0.011414149 -0.0056332806
0.111527525 -0.07571511 0.099291064 -0.035396226 -0.05783687 -0.04458179 -0.02349661 -0.059454963
-0.015990086 -0.052305385 0.06575979 -0.049571544 -0.10281419 -0.09278588 0.0151511105 0.08233548
-0.09551071 0.11882828 -0.08657944 -0.051448904 0.012760018 0.07157001 -0.07334519 -0.036713716
0.06574191 0.047825865 0.058296032 -0.008273229 0.07174041 -0.07329592 0.08478879 -0.08609111
0.015825847 -0.002662949 -0.045423307 0.05631169 0.087821305 0.1282445 -0.041909236 0.0032399422
-0.09456683 -0.06637849 -0.10617369 -0.08729783 -0.050823234 0.040262397 -0.05537289 0.09008201
0.028081857 0.0151698 -0.07061595 0.07705401 -0.002861734 0.049965724 -0.15003677 -0.017173892
0.06219347 -0.13394915 0.046255 0.044791415 -0.016102869 0.028517049 -0.06385765 0.09779503
-0.07724876 0.12757386 0.061358694 -0.08399071 0.02552886 -0.037620068 0.0019525354 0.013688485
0.070935786 -0.10314095 -0.055886995 -0.046849214 0.12321471 0.11417225 -0.12621526 -0.04791383
0.058799144 -0.014978986 -0.023714006 0.104597434 0.052784164 -0.10242581 -0.002564121 0.04994961
-0.07151999 -0.061904643 0.0012248761 -0.08149713 -0.05223329 0.13214168 0.0920362 -0.08869061
0.049774416 0.089996755 0.019503836 0.04530509 -0.12648651 -0.08181212 0.034377538 0.067621574
0.024076572 -0.12798552 0.07245045 -0.027060641 -0.08585786 -0.048985418 0.06511218 0.062324006
00000000: 83a3 843c 7b55 d43d 60ce 893c 4580 33bd
00000010: c668 a9bc e8e6 f2bd ae09 c8bd d420 883d
00000020: 2af7 62bc 5572 ed3d b14f 3fbc fd85 f8bc
00000030: 1d34 bd3d 734c d6bd a3cb 983b c630 b4bd
00000040: 1b69 dabd 9e47 b53d 4207 9fbd d231 9bbd
00000050: bcdb 99bd 2f0b 383c 488b 173d bab7 ea3b
00000060: add4 dcbd 18a5 4dbd 6602 003d ee77 113d
00000070: 94e6 9bbc 5ecc 9cbd c6d7 a7bd c8f8 b63c
00000080: b6e6 cebd 6dce 9fbd 1338 f8bc b3a8 403d
00000090: 779f fabd 1f7b fc3c 6dc9 11bd a055 9a3d
000000a0: 80eb 9abd 1669 713d 5055 50bc 738b 9bbd
000000b0: ac05 c33b 5ca3 02be a320 cbbc 30ee 123d
000000c0: 6562 b7bd 1bda b0bd c5f3 e23d e042 c7bc
000000d0: f395 96bd e639 c53d abf6 7ebc e4a1 3b3d
000000e0: ac08 e8bc f44f adbb 8e69 903c 832a 373c
000000f0: 7975 77bd dcb6 47bd bfba 343d 4abc f1bc
00000100: 170e 93bb f685 8a3d d337 d0bd ef9f 02be
00000110: d625 8bbb c886 0b3d 29a2 033e 9aa5 823c
00000120: 916e 03be ba92 093e c206 5bbd 13bd 20bd
00000130: 7bc3 893c e2fe 953d 6902 3b3c 6297 b8bb
00000140: 8b68 e43d 8610 9bbd 1d59 cb3d a2fb 10bd
00000150: 5be6 6cbd 659b 36bd f67b c0bc 0c87 73bd
00000160: a4fd 82bc 2c3e 56bd 12ad 863d 880b 4bbd
00000170: 3f90 d2bd 8606 bebd 5d3c 783c 819f a83d
00000180: 1e9b c3bd 3e5c f33d 9050 b1bd 16bc 52bd
00000190: 650f 513c 4c93 923d 0136 96bd 1f61 16bd
000001a0: b2a3 863d 0ee5 433d d2c7 6e3d 708c 07bc
000001b0: a3ec 923d 2c1c 96bd bfa5 ad3d 8950 b0bd
000001c0: 35a5 813c df84 2ebb ca0d 3abd 16a7 663d
000001d0: a8db b33d 8752 033e 05a9 2bbd 3655 543b
000001e0: 41ac c1bd 72f1 87bd 9771 d9bd 34c9 b2bd
000001f0: 062c 50bd 2fea 243d afce 62bd eb7c b83d
00000200: ec0b e63c c18a 783c 189f 90bd 7ece 9d3d
00000210: ee8b 3bbb dca8 4c3d 3da3 19be 43b0 8cbc
00000220: 94be 7e3d f729 09be e275 3d3d 3477 373d
00000230: 2aea 83bc 969c e93c cdc7 82bd c348 c83d
00000240: 9934 9ebd b9a2 023e 4153 7b3d 5203 acbd
00000250: e621 d13c 8017 1abd 37ec ff3a ab45 603c
00000260: c846 913d 903b d3bd c3e9 64bd f6e4 3fbd
00000270: fe57 fc3d 24d3 e93d 933e 01be 4b41 44bd
00000280: 5fd7 703d 6c6a 75bc e043 c2bc 2e37 d63d
00000290: 3534 583d a0c4 d1bd d00a 28bb f697 4c3d
000002a0: 1379 92bd b98f 7dbd 068c a03a f8e7 a6bd
000002b0: 93f2 55bd 2650 073e 7a7d bc3d 6ca3 b5bd
000002c0: 42e0 4b3d 3850 b83d 82c6 9f3c d491 393d
000002d0: ae85 01be 1d8d a7bd 76cf 0c3d 2e7d 8a3d
000002e0: 3b3c c53c a30e 03be e760 943d 47ae ddbc
000002f0: 3fd6 afbd efa4 48bd 8959 853d 7547 7f3d

bias f4 [3]
-0.108406045 -0.09243459 -0.0001233392
00000000: fd03 debd 594e bdbd 9d54 01b9
