data_analysis/models/goals_away_predictor_v1.pth (torch, 75124 bytes, 8 tensors)

weight f4 [64, 228]
00000000: d9d9 2b3d b09f d1bc 95db 553d d43d 6b3c
00000010: 0e6e 133c ca69 2e3b a1d4 09bc 57bb e13c
00000020: 1886 4c3c 0b88 49bc f34e ec3b 12cd 873c
00000030: 2a04 a03c 878d 033d 5626 0cbd 274e d1bc
00000040: 8ff0 11bd 7148 db3c 05d3 06bd 4d56 313c
00000050: 206c 9b3c 7f02 c9bc e301 1dbd 783e 97bc
00000060: 0796 4cbc 0f83 833b 2ca6 383b 6905 e13b
00000070: 84ed 18bd 42ef ef3c aeb2 bd3c 9e3b c03b
00000080: 60a7 bdbc 0615 843c af2a 93bc 4294 503c
00000090: eab3 77bc 4e1e 8dbc 784a 1b3d 2f75 f4bc
000000a0: ea5d a63c c458 0bbd 6e93 19bd 0f11 dc3c
000000b0: 5798 2f3b 765d 0abd 66fb bdbc c2c3 ff3c
000000c0: ce7b 9b3c 03ec 673b 35f7 09bd eb93 193d
000000d0: 4cfc 82bc 5f10 dbbc 44aa 64bc bca7 593d
000000e0: f745 3e3d e0d1 d73c 076d d53c d027 a1bc
000000f0: e51b 2b3d 10de 7bb9 17fe 0fbd 2c8a 283c
00000100: 04f3 503c 44e5 bdbc e60f d8bc 3b7a 013b
00000110: 0a39 b7bc 88b5 2b3c 934c 55bc 68f1 15bd
00000120: 6c65 93bc 3f5b 693c 17ef 153c e799 27bd
00000130: d629 b43b c019 d9bb 96da ffbc 1ddf 33bd
00000140: c667 f8bb a1c1 4dbc 47bd c63c c359 b9bc
00000150: 3379 04bd 8a31 73bc 2202 bfbc 0c15 433c
00000160: b9a4 433d 2f5e 69bc d777 fd3c 623f 26bc
00000170: 7f21 d63b cdde 63bb b1c0 f5b9 d176 c7bc
00000180: 7001 173d 827f c0bc 37d9 16bd 3fa0 253d
00000190: c2bc 5abc 5c2a b23b 3885 d73c 0d40 f13c
000001a0: ffc0 21bc eecd 2bbd bc6d c23c 330e c13a
000001b0: 7a26 b63b 6c2a 193c ab2b 07bd 91f4 4c3d
000001c0: ff66 e9bc 7d9f 483d fb13 133d fed8 5139
000001d0: 1080 3f3d f9e6 fbbc b67f 763c 60df 7e3c
000001e0: 38e0 883c 66c1 ca3c 8500 efba 6d74 fbbc
000001f0: a0de b33c 95c1 893c ed11 5cbd b4f1 34bd
00000200: c9e8 8c3c e680 223c 12bf bd3c 1b48 013c
00000210: 2c6c 8137 7276 b23c 0243 4abd 688f 4c3c
00000220: 55d2 753c de1d ddbb 9136 be3c cad1 3f3d
00000230: c7b6 cbbb 942f b93c 8f7d fdba d6b6 ed3c
00000240: bdcf 2a3d 9337 c8bc d465 e9bb cfa0 9c3b
00000250: 7145 013d 2db4 afbc 56fb 72bc 3259 56bb
00000260: 8666 223d b1c1 123d 2c0d 4fbd cef3 91bb
00000270: 3d59 08bd 10cc 543c 0359 d0bc a48d 043d
00000280: 3e8f df3a 7436 b63c 35b7 803c 77de b5bc
00000290: 046d 33bc d4e0 553c 7789 03bc a65b b6bb
000002a0: bd1f fdbc ad18 2cbc cb36 c5bc 930e 733c
000002b0: 3427 8b3c a824 10bd d252 3abd 92fb 86bc
000002c0: ee40 4f39 b085 98bc db05 6d3c b43d 283d
000002d0: eddb c5bc a238 cdbc 76e1 11bd 1512 b7bb
000002e0: 558f 47bd fefd e83a 5b69 c4bb e99f 353c
000002f0: d416 2e3d 470a 1bbc 1e9a 003d fa97 e6bc
00000300: e38b 033d 635e f53a c1af 2f3c 7c46 e6bb
00000310: 5ccd 0dbb c6e1 1dbd d514 323d acc1 2f3c
00000320: eb18 a7bc cd4c 23bd 1ec8 933b 028d 25bc
00000330: 7147 0abd 1c31 cf3b 73d4 173d 7247 cdbb
00000340: e8cc 77bc 19c0 ce3c 50ac e43b f94f a33c
00000350: 51ba ef3c 5716 f6bc ee46 933c 2bb8 b73c
00000360: 5c72 ee3c 3e90 933c 1b48 273c c58e d5bc
00000370: 1e0c 45bc 6ec0 e63c ca40 1dbd c658 a1bc
00000380: 6b3a f9bc 8d47 19bc eb07 443d a7ba 18bb
00000390: 870d 20bc 5428 833c 4c05 833c 5fd3 40bd
000003a0: a94e a53c af81 c239 f5fa 1ebd d968 0cbd
000003b0: c567 8f3b 508f abbc 663c fcbb b9b7 1d3c
000003c0: 1fd2 83bb a837 b0bc 1e99 a6bb d886 e33c
000003d0: 74f4 30bd 3e02 45bc 5b98 27bd 8a8e 7cbc
000003e0: 913f 063d c571 1ebd 2056 39bc b69f 1abd
000003f0: c41e 3d3c 3bd4 043d b90b 3bbd 175c 3c3d
0.041955803 -0.02558884 0.052211363 0.014358003 0.008998407 0.0026613348 -0.008412511 0.02755515
0.012483142 -0.012300502 0.00721156 0.016577277 0.019533236 0.032117393 -0.034216247 -0.025549961
-0.035629805 0.026767941 -0.032916088 0.010823798 0.018972456 -0.024537323 -0.038331877 -0.018462405
-0.012486941 0.004013426 0.0028175218 0.0068671 -0.037335888 0.029288892 0.02315649 0.005866482
-0.0231511 0.016123306 -0.017964689 0.01273066 -0.015118578 -0.017226364 0.037912816 -0.029841034
0.020308454 -0.0340202 -0.037494116 0.026863603 0.0026793682 -0.033780538 -0.023191165 0.031221274
0.018979933 0.0035388477 -0.03368302 0.03749458 -0.015989445 -0.026741205 -0.01395661 0.05313848
0.046453442 0.026345193 0.026052965 -0.019672304 0.04177465 -0.0002401995 -0.03515443 0.010286849
0.012753252 -0.023180611 -0.026374768 0.0019756693 -0.022366066 0.010480292 -0.013018745 -0.036607176
-0.017992698 0.014242946 0.009151242 -0.040918257 0.0054981513 -0.006625384 -0.03123216 -0.04391395
-0.00758073 -0.012558372 0.024260176 -0.02262581 -0.032342147 -0.014843354 -0.023316447 0.011906873
0.047764514 -0.0142436465 0.030940933 -0.010146948 0.0065347548 -0.003477025 -0.00046873608 -0.024348648
0.036866605 -0.0234983 -0.036828246 0.040436026 -0.013350667 0.0054371785 0.02630864 0.029449487
-0.009872674 -0.041944437 0.023733966 0.0014728963 0.005558786 0.009348493 -0.03300063 0.050037924
-0.028491495 0.048980225 0.035907727 0.00020012629 0.04675299 -0.030749785 0.015045097 0.015556186
0.016708478 0.024750423 -0.0018234408 -0.030695165 0.021956742 0.01681594 -0.053728033 -0.04417582
0.017200844 0.009918427 0.023162398 0.007890726 1.542837e-05 0.021784995 -0.04938031 0.012485363
0.01500376 -0.006747945 0.023219379 0.04683093 -0.006216857 0.022605695 -0.0019339788 0.029017847
0.04170202 -0.024440562 -0.0071227346 0.004779912 0.031560365 -0.02144822 -0.014830431 -0.0032706973
0.039648555 0.03582925 -0.05054967 -0.0044541126 -0.03328823 0.012988105 -0.02543307 0.03236164
0.0017056239 0.022242762 0.01571236 -0.022200806 -0.010951284 0.0130540915 -0.00802838 -0.0055651246
-0.030898923 -0.01050393 -0.024073979 0.014835018 0.016986467 -0.035191208 -0.04548914 -0.01647738
0.00019765247 -0.018618435 0.014466728 0.04107447 -0.02415272 -0.025051419 -0.035615407 -0.0055868723
-0.048720676 0.0017775891 -0.0059940047 0.011085489 0.04250224 -0.0094628995 0.031396978 -0.02814864
0.03211583 0.0018720146 0.010723055 -0.0070274454 -0.0021637296 -0.038545392 0.0434769 0.010727327
-0.020397624 -0.039868165 0.00450994 -0.01010442 -0.033759538 0.006322993 0.03706784 -0.0062646205
-0.015124537 0.025238084 0.006978549 0.019935595 0.029263647 -0.03003995 0.017978158 0.022426685
0.029107265 0.018013116 0.010210062 -0.026069054 -0.012026815 0.02816793 -0.038391866 -0.01969565
-0.030423364 -0.009355438 0.047859114 -0.0023304613 -0.00976885 0.01601044 0.015993737 -0.04707658
0.02017911 0.00037099185 -0.03881355 -0.034279678 0.004376384 -0.02094236 -0.0076976297 0.009626322
-0.004022851 -0.021510914 -0.005084171 0.02777426 -0.04320188 -0.01202446 -0.040916782 -0.015414843
0.032775465 -0.038682718 -0.011312038 -0.03774997 0.01154298 0.03242896 -0.045665476 0.04598626

bias f4 [64]
00000000: 855e 16bd 6fba 053d 68ad 4ebd 47d9 743d
00000010: fc19 2d3b 7895 1f3d aa44 1d3c 1326 a4bc
00000020: bb64 27bc 4e92 da3c a647 f73c b9a6 8d3b
00000030: 6896 2e3d aee2 21bb ecd2 d83c f302 eabc
00000040: f352 613c 1b7f 81bd 2e01 6e3d 0df3 553d
00000050: 947e 0f3c e02f a4bc dad8 753c 73f5 7a3d
00000060: 5475 af3c 8eef 75bc 6946 81bc 8de6 383d
00000070: 1039 033d 0094 3a3d 4279 fe3c 9413 cbbb
00000080: b684 16bc 2d6c e6bc 0bcd 873c 90f4 e6bb
00000090: 23f5 b23c b73a afbc fda8 b239 212f 1e3d
000000a0: 71cc 663b 7a5b 153d 0131 a63c cad8 40bd
000000b0: 7d58 7dbc d997 80bd 0292 0a3d d180 1dbd
000000c0: 45a6 4f3d 362b 763b b25e ed3c 61bd c4bb
000000d0: 3468 b9bc 7a2f ba3a 9a8b 27bd d3dd fabb
000000e0: c44e 90bc 4513 8dbc 6da5 863c d8b9 8bbb
000000f0: 3847 a13c e743 1ebd 912c 4b3d 1915 d33c
-0.036711235 0.0326485 -0.05045834 0.059777524 0.0026413193 0.038960904 0.00959889 -0.020037686
-0.010216887 0.026681092 0.030185532 0.0043228534 0.042623907 -0.0024701762 0.026467763 -0.02856586
0.013752687 -0.063230716 0.058106594 0.052233744 0.008758206 -0.02004236 0.015005315 0.061269235
0.021418251 -0.015010728 -0.015780644 0.045141745 0.03203684 0.0455513 0.03106368 -0.0061974023
-0.009186914 -0.028127754 0.016577264 -0.007048197 0.021845406 -0.021390302 0.00034076712 0.038619164
0.0035217071 0.036464192 0.020287039 -0.047081746 -0.015462992 -0.06278963 0.03383065 -0.038452927
0.050695676 0.0037562377 0.028975818 -0.006004021 -0.022632696 0.0014204823 -0.04090462 -0.007655838
-0.017615683 -0.017221102 0.016436303 -0.0042640977 0.01968728 -0.038638975 0.04960305 0.025766896

weight f4 [32, 64]
00000000: 484c a4bd f42b 9a3c 808d 083d e475 913d
00000010: 4ecc c43d 6f7a 2fbd 5e80 153d 8ec6 6dbc
00000020: 9657 cd3c 13a7 65bd 0faf 853d 16a6 853d
00000030: cd27 d4bc 4bc0 cf3d fec6 9a3c d419 91bd
00000040: 9aef 61bd 7b4d a7bd 54f5 193d 1126 7cbc
00000050: 38a2 2c3d f09e fbbc 8551 1b3d 93d3 8ebd
00000060: ef3e a9bd 2503 4a3b 58d2 103d 82cf 193c
00000070: b16f 1fba 28f7 a53d 837f 583d 3b63 71bc
00000080: 2f4f 5cbc 5177 42bb ac95 553d b7ad 193c
00000090: b6cc d83c 19d1 113d 1613 09bd fe75 523d
000000a0: e5ff cb3d 41b0 fdbb 8bc9 e9bc 1ecc d73c
000000b0: 469f c83c 2494 b5bc 856f 3bbd 42e9 8c3d
000000c0: ebc3 0fbd 4d60 f8bc d3e8 01bd 525d 8b3d
000000d0: 0aa5 a43d bfc6 963d da8d 183d bf52 c8bc
000000e0: 23a7 4a3d c96a df3c 86eb 61bd 7c56 213d
000000f0: 41f4 683d c0e6 813d 7618 813d 671e 31bc
00000100: e010 d4bc 85bd 1bbd 3b56 f9bc c6c2 4d3d
00000110: e865 84bc d1bc bcbc e4e8 3ebd f79a 43bb
00000120: bfe6 053b b705 f6bc 659c eabc 9773 993d
00000130: 6371 2ebd 7d7b f5bc ded5 003d f7aa 533b
00000140: 0f6c 9d3c 0081 06bd 6e97 8bbc b5a7 c3bc
00000150: 4c90 80bd 244d 5cbd 1497 59bd e8cd 01bd
00000160: 33a6 9e3a 3a2b 8ebc a9ef 3bbd 5e39 613b
00000170: 97e2 493b bf72 6f3d a3d8 ff39 8123 423d
00000180: b2c1 38bd 5700 0cbc d217 4f3d 128e 56bd
00000190: e8bb 863c f63e b4bc 4064 88bd fbcb babc
000001a0: c06b 313c 0319 b9bb aa4e cf3c 1781 8fba
000001b0: c4cc 773c 868f 9b3d a771 3dbb ef60 f5bc
000001c0: ce40 93bd efd6 c2bc a2bd 7c3d de80 7ebd
000001d0: afc2 2a3d 367d d7b9 1db7 c4bc 2644 35bd
000001e0: d63c 283d 3071 6c3c 0b2e 11bd 9ebc 22bd
000001f0: 3a89 97bd f2fe 613d 06c7 9c3c 7663 9dbc
00000200: 6fff 38ba 988a 91bd ed2b c93c e65c a6bd
00000210: 66fa 52bd 6084 8e3d e868 8d3c 1845 a93d
00000220: 2380 993d 65a4 6c3d e741 bc3d 9a95 8d3d
00000230: ccdf a83c fa94 9cba f1be 03bd 0e1e 643d
00000240: 912c d7bc 52ae 45bd 0e21 1f3d 0e9e 6ebd
00000250: dc8f 00bd 1233 0abd 05ea 5a3d bc8e 3a3d
00000260: 5196 cf3c b234 2b3c ac21 b93d 6abc 93bd
00000270: 7b13 94bd 1183 36bd 50e1 99ba 9d27 ac3d
00000280: bf3c 573d a63e 383d d473 e13d 630d 803d
00000290: b67b 903b d6b2 d73c 8c5e 91ba 7048 9c3d
000002a0: 9be8 983d 8e89 ea3b f034 cc3a 3dee 203d
000002b0: 6595 32bd 1c89 82bd 46d0 17bd 07a8 aebc
000002c0: 62d4 afbc 6a3a a13d 9547 25bd 2ab0 693d
000002d0: e66f 24bd 70f6 bd3b 16e5 b23d 9ef8 2ebd
000002e0: 4078 123c bf12 573d 94a8 b53c 08a3 9bbb
000002f0: 8594 6bbd 0c17 443d 3b3c 66bb 1235 13ba
00000300: b841 b0bc 0133 383d 012f 773d a9ec edbd
00000310: 312d 5d3d 8ed6 a6bd a109 0c3b 5c14 9dbc
00000320: 4226 933d 2cf2 ed3d fe50 d33c 2561 2b3d
00000330: 1080 a8bd 654e 5ebd 13d5 c03d 5782 b2bc
00000340: 0d1f 983d 9802 babc 92cc 49bd 4831 7b3d
00000350: 8b81 c63d 6aed d63d 2061 f1bc 9d2f 303b
00000360: c03c 8d3d 838e 99bd d2e1 54bc 823c cd3d
00000370: e715 8d3d 4df3 83bd 7d04 de3d e46d ae3d
00000380: 28b4 3cbd 3b72 afbc 30d1 7bbc 57e8 2ebc
00000390: d2b9 8d3d d7c5 42bd 6b6a 90bd cf8d b5bd
000003a0: e2c8 60bd 1471 aabd 61dc 7f3c c82a 25bd
000003b0: 69ef 15bb 26e6 c93d 6f21 9cbd 5a45 313d
000003c0: a2f7 9bbd ffdc 94bb 85ad bfbb 5293 a6bd
000003d0: ace8 3fbd 57d4 bbbd 2f64 cfbd a5c7 963d
000003e0: 667d 9e3c 9926 32bc 85c4 85bd edc0 543d
000003f0: 41ba d43d 2aab 26bd bdd3 983d c1f7 893d
-0.08022362 0.018819787 0.03333807 0.07102564 0.096092805 -0.04284137 0.036499374 -0.014512671
0.025066178 -0.056067538 0.065275304 0.06525819 -0.025897885 0.10144099 0.018893715 -0.070850044
-0.055160142 -0.08169075 0.03758748 -0.015389935 0.04214689 -0.030715436 0.03791954 -0.06973948
-0.08263957 0.0030824628 0.03535685 0.009387853 -0.0006082012 0.08103782 0.05285598 -0.014733131
-0.013446613 -0.002967317 0.05214469 0.009379796 0.026464801 0.0355998 -0.033465467 0.051382057
0.099609174 -0.0077419584 -0.028538486 0.026342448 0.02449001 -0.022165366 -0.04576065 0.06880428
-0.03509895 -0.030319357 -0.03171618 0.06804909 0.08039291 0.073621266 0.037244655 -0.024453519
0.0494758 0.027272599 -0.055156253 0.03938912 0.056873564 0.0634284 0.06303494 -0.010810471
-0.025886953 -0.038022537 -0.030436626 0.05023458 -0.016161874 -0.023039253 -0.04660882 -0.0029847005
0.0020431725 -0.030032022 -0.028639028 0.0749275 -0.042588603 -0.02996611 0.03145396 0.0032297948
0.019216565 -0.032837868 -0.01703998 -0.02388368 -0.062775224 -0.053784505 -0.053122595 -0.031690508
0.0012103975 -0.017354596 -0.045882855 0.003436647 0.0030805224 0.05845904 0.00048798797 0.04739714
-0.045106597 -0.008545003 0.050559826 -0.052381583 0.016447023 -0.022002678 -0.06659746 -0.022802344
0.010828912 -0.0056487336 0.025306065 -0.0010948506 0.0151245035 0.07595734 -0.0028906853 -0.029953448
-0.07190095 -0.023784129 0.061704285 -0.062134616 0.04168957 -0.00041101285 -0.024013096 -0.044254445
0.041073643 0.014431283 -0.0354443 -0.03973066 -0.07399221 0.055174775 0.01913787 -0.019212466
-0.00070571055 -0.07106513 0.024557078 -0.08123188 -0.05150833 0.06958842 0.017261937 0.08265132
0.07495143 0.057773966 0.091922574 0.069133 0.020614527 -0.0011946254 -0.032164518 0.055692725
-0.026266368 -0.048261948 0.038849883 -0.0582562 -0.031387195 -0.03374011 0.053445835 0.04554628
0.025340231 0.010449575 0.090396255 -0.072136715 -0.07230278 -0.04455859 -0.0011740122 0.08405993
0.052548166 0.04498162 0.110084206 0.06252553 0.0044092787 0.026330393 -0.0011090799 0.07631004
0.07466241 0.007157511 0.0015579741 0.0392897 -0.043599505 -0.06373808 -0.03706386 -0.021320356
-0.021463577 0.0787247 -0.04035147 0.05705277 -0.040145777 0.0057972 0.08735101 -0.04271757
0.008939803 0.052508112 0.02217511 -0.0047496594 -0.057514686 0.04787354 -0.0035131115 -0.0005615513
-0.021515712 0.044970516 0.06034756 -0.11617405 0.053998176 -0.08146392 0.0021368044 -0.019174747
0.071850315 0.11618456 0.025795456 0.04184069 -0.08227551 -0.05427398 0.09415641 -0.021790667
0.074277975 -0.022706315 -0.04926736 0.061326295 0.09692677 0.10494502 -0.029465258 0.0026883848
0.06896353 -0.07497885 -0.012993293 0.100213066 0.06888943 -0.0644289 0.108407 0.08517054
-0.046070248 -0.021416774 -0.015369698 -0.010675511 0.06920208 -0.047551956 -0.070515476 -0.088649385
-0.054879077 -0.08322349 0.015616507 -0.040324003 -0.0022878295 0.098583505 -0.076235645 0.04327903
-0.076155916 -0.0045429463 -0.0058495426 -0.08133568 -0.046852753 -0.0917136 -0.101265304 0.07362298
0.019346904 -0.01087346 -0.06531624 0.0519418 0.103870876 -0.04069058 0.07462261 0.067367084

bias f4 [32]
00000000: 2768 37bd 7be6 273d 3207 b93d c7f5 3d3d
00000010: 2cc8 de3d 5763 91bd e238 c3bc 3fa1 c1bc
00000020: 98fd 783d cd08 0d3e 2cd6 a23a 2bc6 f43c
00000030: 2e13 cebc de55 853d 95be 8f3d 5b8f 023d
00000040: f3b6 a43d f040 393d 1cd2 873c 1e82 4b3d
00000050: b668 92bd 0dc1 eb3d 1f7a ad3d 984f 823b
00000060: fd35 033d 301c 293c 7cc3 893d f60c a63d
00000070: b0a6 173d 3dac 65bc c9c4 bfbd 8919 123d
-0.04477706 0.040991288 0.090345755 0.04637697 0.108780235 -0.07099026 -0.023830835 -0.023636458
0.06078872 0.13772888 0.0012423447 0.02987965 -0.02515563 0.065105185 0.070187725 0.031874996
0.08042707 0.045227945 0.01657968 0.049684636 -0.07148878 0.11511431 0.084705584 0.0039767735
0.03203391 0.010321662 0.06726739 0.08107941 0.0370242 -0.014018116 -0.09363706 0.035668883

weight f4 [16, 32]
00000000: fb6d 923d 1616 c7bc 30ec c33d 8215 02be
00000010: dc36 073e 261d a93b fda3 a03d e1c5 003d
00000020: 0429 1c3e 81fb d73d 98ba 413e f3f8 9c3c
00000030: 0e54 c93d d1b1 263d b2bb c4bd 08ef 03be
00000040: 56cd dcbc 5909 8b3d 59e6 6d3d 3b4f ef3d
00000050: ef62 41bd 120a 943d 693e 023e 8af8 a93d
00000060: c5ce 99ba c8b9 dcbd db82 df3d a868 5b3e
00000070: 97c7 893d fbb4 793c 2b34 a0bd 2675 913d
00000080: 5977 86bd ce57 533c 16fb 8dbd 6bd5 923b
00000090: a835 a5bd 3c17 8d3d 2312 2a3e 7254 213c
000000a0: 24d8 963d 6877 0d3e 258d a7bd 7749 bb3d
000000b0: 5ad9 09bd 9d5a 83bd cff7 c9bc d371 63bd
000000c0: c364 23bb dbad 763c 8963 edbd dac2 5b3d
000000d0: 75c9 c5bc 3009 b23d 77d0 33bc ddac 8bbd
000000e0: e565 b03d 244d 58bd 11b0 ff3d b75f da3d
000000f0: 4900 2b3e 82a0 1abc 7d56 bbbb 2d39 c83c
00000100: a39c e9bb 1e98 83ba 6fcd d6bc 9b79 7abc
00000110: 9272 18bd e973 85bb b86a 56bc c27a 9cbb
00000120: d585 683b 7711 f4bc 61e8 f3bc 8eca c83a
00000130: 7312 713a 50c5 83bc 06e5 9a3c 0569 7d3d
00000140: b22c 203b ecb7 923c cac2 4e3a 3583 083b
00000150: baaa bfba e31a 253c 9cd0 53bd 6e56 1b3c
00000160: b48c b93c e01f 7cbb dc37 cfba b445 13bd
00000170: 7154 283c a596 6fb9 9ec6 6e3b 4838 623a
00000180: 4c6c 25bb 02f8 493a 8e46 bbba 7165 023d
00000190: 731b d0bb dff7 c93a 2fdc 033b 986a 643a
000001a0: 6bd2 89bc ee40 9ebc 88ac acbc 79aa cdba
000001b0: e66f 01ba 818a 8e3c 2a17 73ba 582b 03bd
000001c0: 29cd bf3a f8f5 bebb a193 18bc 7546 2e3d
000001d0: 0a09 cc3a 07cd 80bb 79c0 743d dfb1 353b
000001e0: 6da4 30bb 1146 dab9 b57e dbba 39d6 86bc
000001f0: b7aa 7bba f1f9 ccb8 dc91 a83a ff6d e43a
00000200: 44d8 2fbd f3a3 14bb f98b 863d e525 903d
00000210: cf61 25bd 0a77 9f3b d09e 8b3c 33b7 2ebb
00000220: aaf9 39bc 6b58 d5bd c3c6 1f3d dd6f a5ba
00000230: 935e a9bb 4796 173c a3d0 553d 707a 833d
00000240: 71c5 1e3c 405e 373d b05c 453d 889b c53c
00000250: 2a56 353c e0f1 9cbd bd26 ecba 9cb1 0c3d
00000260: 03ff 8e3d 1b63 d1bc 9d69 00bd eac1 cfbd
00000270: 3d41 b7bc 678f e1b7 4a35 12bc 89f8 323d
00000280: cec1 e2bc 7749 05bc 5dbf ebbc 4f91 3cbd
00000290: 7047 d6bc a006 c3bc 1c06 073d 01da ab3c
000002a0: 5e89 183d 41ec 97bd fff8 d93b 1b81 843c
000002b0: b719 d43c 746a 5fbd e118 3d3d e7c5 253e
000002c0: 0263 08bd ce21 00bc 292c 86bd 436c b8bd
000002d0: 7140 563c 4eed 0a3c 5152 08bd 2170 8b3d
000002e0: 009a d63d 464e 1dbd c017 b1bc 4827 be3d
000002f0: 89f9 9cbd 0524 623a 8ea6 993d f5aa 0fbc
00000300: 0402 553c df70 e53c 6231 dd3c 5b82 6ebd
00000310: f52b c53d f335 c63b 087e 91bd 2baf 0ebd
00000320: 49d9 b7bd de10 903d 8aca a9bd b512 123d
00000330: 246d 57bb 1a85 b33c 7a79 06bd 1e6c 1b3e
00000340: e97b 7bbb 7139 f63a c33b 0abb d859 11bd
00000350: 64ff c83c 9ff0 a2bd f268 893d c0ad 2cba
00000360: 6baf b1bd 280b 8f3d 314e c83c 37cc 02be
00000370: 88b1 9cbd 87b6 84ba 0962 8c3d 51bb d03c
00000380: 2e8e c6bd 778e 40bd f68b de3d a843 053e
00000390: b7ee 13be 6360 fdbc 8dfb e6bd 7a8f 7bbc
000003a0: e14b d5bb cc63 9a3d a2ab 59bd 0a3a c7bd
000003b0: 1736 8fbd 5f6c ee3d 8884 7bbd 14d2 e23d
000003c0: b965 a13d d7ee 11be 08ce afbd f430 a53d
000003d0: 0401 17bd 2475 823c 9622 fabd bbb5 d43c
000003e0: dc25 cd3d 78b2 2cbd 8474 5c3d a2d4 32bd
000003f0: d795 72bd 675a 243d b05d 9b3c f0c3 053d
0.07149883 -0.024302524 0.095665336 -0.12703517 0.13204521 0.0051609455 0.07843778 0.031438712
0.15250021 0.105460174 0.18918836 0.019161677 0.09830485 0.040696923 -0.096061125 -0.12884152
-0.02695338 0.06788892 0.058081005 0.11685034 -0.04721349 0.07228483 0.1271912 0.08299358
-0.0011734596 -0.107776225 0.109136306 0.21426642 0.06727522 0.015240903 -0.0782245 0.071024224
-0.065657325 0.012899352 -0.069326565 0.004481008 -0.08066875 0.06889197 0.16608481 0.0098467935
0.07365444 0.13815081 -0.08181218 0.09144872 -0.03365455 -0.064137675 -0.024654297 -0.055528473
-0.0024931885 0.015056099 -0.115912504 0.05365262 -0.024143914 0.086931586 -0.010974995 -0.068200804
0.08613185 -0.052807942 0.12484754 0.106627874 0.16699328 -0.009437682 -0.0057170973 0.024441326
-0.0071292683 -0.0010039841 -0.026221005 -0.015287782 -0.037218638 -0.0040726555 -0.013086967 -0.004775376
0.003548016 -0.029793484 -0.029773893 0.0015319155 0.00091961696 -0.016085297 0.018908035 0.061867733
0.0024440703 0.017909966 0.0007887302 0.0020830159 -0.0014623024 0.010077211 -0.051712617 0.009481056
0.0226501 -0.0038471147 -0.0015809494 -0.035955146 0.010274039 -0.00022848936 0.0036434303 0.00086296024
-0.0025241552 0.00077044975 -0.0014287995 0.031835023 -0.0063509285 0.0015408954 0.0020120253 0.00087133935
-0.016823968 -0.01931807 -0.021078363 -0.0015691064 -0.00049376336 0.017400028 -0.0009273166 -0.032023758
0.0014633286 -0.0058276616 -0.009312541 0.04254766 0.0015566659 -0.003930691 0.05975387 0.0027724428
-0.0026953474 -0.00041632404 -0.0016746136 -0.016459571 -0.00096003286 -9.774033e-05 0.0012860852 0.0017427801
-0.042930856 -0.002268073 0.065696664 0.07038478 -0.04037648 0.0048664855 0.017043501 -0.0026659488
-0.011351028 -0.10417255 0.039007913 -0.0012621839 -0.005168745 0.0092521375 0.052200925 0.064198375
0.009690628 0.04476762 0.048184097 0.024122015 0.011067906 -0.076633215 -0.0018016916 0.03434907
0.069822334 -0.025559952 -0.03135072 -0.10144408 -0.022369975 -2.6888867e-05 -0.008923838 0.043694053
-0.027680304 -0.008135191 -0.028777773 -0.046037015 -0.02615711 -0.02380687 0.03296481 0.020977976
0.03724038 -0.07418109 0.006651997 0.016174844 0.025891168 -0.05454488 0.046166304 0.16188775
-0.033297546 -0.00782056 -0.06551392 -0.09005024 0.0130768875 0.008479429 -0.033281628 0.06808496
0.10478592 -0.038404725 -0.02161777 0.09284836 -0.076647826 0.0008626583 0.07502471 -0.008768787
0.013000969 0.028007923 0.027001087 -0.058229785 0.09627525 0.0060489117 -0.07104117 -0.034835022
-0.08976991 0.07034467 -0.082905844 0.03566237 -0.003287145 0.021914054 -0.032830693 0.15177962
-0.0038373417 0.001878543 -0.002109275 -0.035486072 0.024535842 -0.07956051 0.0670947 -0.000658717
-0.086760364 0.0698455 0.024451347 -0.12773214 -0.07651049 -0.0010125198 0.06854636 0.025479944
-0.096950874 -0.047010865 0.10866539 0.1301409 -0.14446531 -0.03092975 -0.11278448 -0.015354032
-0.0065092896 0.07538566 -0.053142197 -0.09727867 -0.06992739 0.11641764 -0.06140569 0.110752255
0.0788073 -0.14251266 -0.08584219 0.08065978 -0.036866203 0.015924998 -0.12213628 0.025965562
0.10016987 -0.04216239 0.053822055 -0.043659814 -0.05922493 0.040125277 0.018965572 0.032657564

bias f4 [16]
00000000: 97ef c83d 99c3 8fbc 7c8a 883d 4178 bbbc
00000010: 2bdb 7a3d d31c e6bb 1138 b83d 6b2b f53c
00000020: ab05 af3d ae95 c53c ccba f73d 8bd0 94bd
00000030: 5088 d23d 8370 c33d 2bc1 233e ef7a 1fbc
0.09811323 -0.017549323 0.06667039 -0.02288449 0.06124417 -0.007022479 0.08995069 0.02992793
0.08546003 0.024119224 0.120961756 -0.07266339 0.10279906 0.09542944 0.15991656 -0.0097338995

weight f4 [2, 16]
00000000: f346 3e3e 3e18 453e b6b3 1fbe 62eb 633c
00000010: 5985 143e 8df0 ae3c 1fa8 993d 39aa 54be
00000020: 62a8 063e e2a3 31bd fbb2 d63d a44d 00bc
00000030: 6e92 4bbd 4d1f 25be 35c1 58be 2b88 18bb
00000040: 6f14 92be a9c7 d6bc a81b e3bd 7698 7cbc
00000050: fee8 643e bf4c 1e3e b89f 3b3e 9ff4 4a3e
00000060: 0439 dabd 8cb1 5d3e a98b 57be 1111 e53c
00000070: cc12 623e e9e4 da3d 17fe 253e 3c38 103b
0.18581752 0.19247529 -0.15595898 0.0139111 0.14503993 0.021354938 0.0750277 -0.2076806
0.1315017 -0.04336918 0.104833566 -0.007831011 -0.049700193 -0.16125222 -0.21167453 -0.0023274522
-0.28531215 -0.026218252 -0.110892594 -0.015417209 0.22354504 0.15458964 0.18322647 0.19819878
-0.10655406 0.2164976 -0.2104937 0.02796224 0.22077483 0.106881924 0.16210209 0.0022006175

bias f4 [2]
00000000: d835 8c3d 6e21 86bd
0.068462074 -0.06549345
