data_analysis/models/goals_predictor_v1.pth (torch, 76804 bytes, 8 tensors)

weight f4 [64, 235]
000000 96 d0 b1 3c 42 c4 ef bc d6 f1 41 ba d7 85 a1 3c
       0.021705907 -0.029268388 -0.0007398402 0.01971714
000010 11 27 61 3c 1b 9c 95 bb e2 3e a1 bc f5 20 f3 bc
       0.013742224 -0.0045657284 -0.019683305 -0.029678801
000020 db 02 f9 3c 5d 03 50 bc 75 4f 44 3c fc 2e ae 3c
       0.03039687 -0.012696114 0.011981835 0.021262638
000030 98 3b b5 bb 8f 2c ea 3b f7 83 db 3c 00 5f a6 bc
       -0.005530786 0.007146425 0.026796324 -0.020308971
000040 c7 1e 3e 3c 14 60 3a bc 26 7d f9 bc dc 6f b9 3c
       0.011604018 -0.011375446 -0.030455183 0.022636347
000050 ef c6 c1 bc 3a f2 2f 3c 76 69 a1 38 49 41 35 bc
       -0.02365443 0.010738904 7.696722e-05 -0.0110629285
000060 cb 16 9e 3c 8a 44 92 3c 2c 77 66 bc e3 28 4f bc
       0.019297978 0.017854948 -0.014066499 -0.0126440255
000070 2c 66 1f bd 4c 88 5e bb 5f ad a3 bc 4a ab 0a bb
       -0.038915798 -0.003395575 -0.01998013 -0.0021159225
000080 8d 30 09 3d 9a 7a b0 bb ea 28 86 bc 9b 7c 31 bb
       0.033493567 -0.005385709 -0.016376931 -0.0027082327
000090 f7 7c 96 bc db a8 a3 bb 00 7b c2 bc 3a 27 3b bb
       -0.018370135 -0.0049944944 -0.023740292 -0.0028557316
0000a0 08 b9 4b 3c f0 eb 29 3b c2 1c 1d 3c d5 6c a8 3c
       0.012434252 0.0025927983 0.009589376 0.020559708
0000b0 f2 69 db bc 63 17 35 bc 16 a4 4b 3c 0e c6 02 3c
       -0.026783917 -0.011052939 0.012429258 0.00798179
0000c0 00 94 fb bb 9f 5b ad 3c 2b ee 16 bd 2b a8 52 3c
       -0.007677555 0.021161852 -0.03684823 0.012857477
0000d0 5a a8 85 bb df 66 76 bc 8c f6 b9 3c 81 2a ac 3c
       -0.004078907 -0.015039175 0.02270057 0.021016361
0000e0 f2 a4 db 3c 4c 49 87 bc 64 29 05 bd fa f3 12 bd
       0.02681205 -0.016514443 -0.032510176 -0.035877205
0000f0 58 a2 bc bc 06 d8 24 bd 02 c6 14 3d 13 ad ee bb
       -0.02302663 -0.04024508 0.036321647 -0.0072838156
000100 16 de 03 3b 2a 8b 93 3c 43 63 b6 3c 7b b0 a9 bc
       0.0020121387 0.018010695 0.022264129 -0.020714035
000110 35 8b 8e 3c b7 b9 c3 3c 3c 08 57 3d 02 66 9a bb
       0.017400363 0.023892267 0.052498087 -0.0047118673
000120 93 7c 81 bb 9f b0 5e 3c 46 78 3b 3c a6 b4 38 3d
       -0.003951618 0.013591914 0.01144225 0.045094155
000130 64 c2 02 bd 17 83 fa 3b f1 3d d2 bc 52 78 b9 bc
       -0.031923667 0.0076450217 -0.025664302 -0.022640381
000140 7e 8d 28 3d 09 e1 72 3c b2 73 13 3d 50 93 d8 bb
       0.041150562 0.01482416 0.035999008 -0.006609358
000150 f1 12 51 3c fa 0e 8a 3c 55 f0 7a bc ab 3c 42 bd
       0.012760864 0.016852845 -0.015316089 -0.04742114
000160 64 cb a6 bc d5 8b 85 3b 42 74 bd 3a 58 34 fd bc
       -0.020360656 0.004075507 0.0014454203 -0.030908749
000170 0a 6e 91 3c 4f aa da 3c 50 3c 39 3d a2 c0 16 bc
       0.017752666 0.026692538 0.045223534 -0.009201201
000180 46 67 c6 bc 98 cd 5b bc 09 de 2e bd 4e d0 fe bc
       -0.024219166 -0.013415717 -0.042692218 -0.031105187
000190 9e 08 d0 bc 9d da 40 3b 93 53 1b 3c 60 e4 1f bd
       -0.025394734 0.0029427179 0.009480375 -0.039036155
0001a0 cf bd 15 bc b1 b6 3a 3b 0e c3 af bb f1 37 32 3c
       -0.009139492 0.002849024 -0.0053638285 0.010877595
0001b0 73 52 af 3b 51 ac 89 3c 58 9a c4 3c 6d 2c 4a bc
       0.005350405 0.0168058 0.023999378 -0.0123396935
0001c0 17 29 7d bc c0 83 19 bd 8b 98 1b 3b c9 ca 6a 3c
       -0.015451691 -0.037479162 0.0023742046 0.014330574
0001d0 91 95 bb bc 55 09 0b bd a8 09 27 3d 1b 18 80 bb
       -0.022898467 -0.033944447 0.040780693 -0.0039091236
0001e0 0d ab 6a bc a4 74 04 3d 0f d3 07 bc bb 90 5c bb
       -0.014323008 0.0323378 -0.008290066 -0.0033655602
0001f0 61 ac c5 ba 7c 7f 42 bd ca d0 11 3d d7 21 45 3c
       -0.001508128 -0.04748486 0.035599507 0.012031994
000200 0e a3 fe bc 65 59 8d 3c 29 e2 78 3c 91 ae 98 bb
       -0.03108361 0.01725454 0.0151906395 -0.004659482
000210 8e 89 c0 3c 35 5f 76 3d 3f eb 85 bc 04 0f 69 3c
       0.023503091 0.06014939 -0.016347526 0.014224771
000220 26 0d 3a 3b c7 bc 56 3c 07 0d a1 3c e3 1d 07 3c
       0.0028389185 0.013106531 0.019659532 0.008246872
000230 be 53 fb bc 40 ac 03 bd da b0 98 bc 5e 04 de 3c
       -0.03067958 -0.032146692 -0.018639017 0.027101692
000240 9e 63 2c ba 19 68 56 bc 92 37 b3 3c 75 28 5f bc
       -0.00065761234 -0.013086342 0.021877084 -0.013620486
000250 fa c7 1a 3c 39 74 f8 3c f7 1f 84 3c af bc 19 bc
       0.009447092 0.030328857 0.016128523 -0.009383365
000260 95 96 e0 3c aa 46 8b bc 0a 94 43 3c a8 04 91 bc
       0.027415553 -0.017001469 0.011937151 -0.017702416
000270 78 df 6c bb 49 0a 79 3c 36 b1 6b 3c 05 ba f4 b9
       -0.003614394 0.015200206 0.014385512 -0.00046677902
000280 8d f2 4b 3b 95 d3 52 3b fe a1 bb 3c b1 0d a2 3c
       0.0031119913 0.003216957 0.022904392 0.01978192
000290 91 48 b2 bc 85 ec cf 3b 98 7d f6 bc 03 f0 52 bc
       -0.021763118 0.006345334 -0.030089185 -0.012874606
0002a0 1c 42 0d bd d1 d8 9a 3c 73 63 bd bc f6 d1 84 3c
       -0.034486875 0.018902214 -0.02311871 0.016213398
0002b0 d2 ea 47 bd 13 bc ce bc 05 48 98 3c f0 1d 0b 3d
       -0.048807926 -0.025236165 0.01858903 0.033964097
0002c0 fc b4 97 3c ad 31 5e bc 5f 83 af bb f5 e2 b2 3c
       0.018518917 -0.013561648 -0.005356237 0.021836737
0002d0 ad ac e0 39 64 02 ef bc a6 e2 12 bd bb ee 01 3d
       0.00042853263 -0.029175945 -0.03586068 0.03172181
0002e0 5f 0b 11 bd 38 34 32 bd 13 1b 9a ba f7 57 13 bd
       -0.035411235 -0.04350683 -0.0011757336 -0.03597256
0002f0 f4 b3 fe bb 2d 5b 20 bc 09 74 b1 3b 28 c0 52 bd
       -0.007772917 -0.009787363 0.005415444 -0.051452786
000300 83 5e a0 3a c6 c8 d0 bc 46 b7 ac bc c1 27 5c bd
       0.0012235198 -0.025486361 -0.021083485 -0.05374885
000310 c8 94 8e 3c cb c5 6f bb 5a f1 c6 bc 02 bb 4c bc
       0.017404929 -0.00365864 -0.024285007 -0.012495758
000320 d7 ba 19 3c cc a2 04 bd 9d 28 12 3d e9 56 f0 bb
       0.009382925 -0.032381818 0.035683263 -0.0073345792
000330 4c 04 bc 3c 8b 10 64 bc fe 23 ce ba 2c b9 4d bb
       0.022951268 -0.01391996 -0.0015727279 -0.0031390889
000340 ee 45 68 3c 3d f6 04 3d d1 cd 9c bb 84 f5 c2 bc
       0.014176829 0.032461394 -0.0047852774 -0.023798712
000350 ff 5e e6 bc 38 b1 26 3c d5 2d 6b bc 69 98 23 bd
       -0.02812147 0.010174088 -0.014354189 -0.03994027
000360 7f 4c ba bc c7 81 87 bc a9 f3 0f 3d fb 30 c8 bc
       -0.022741554 -0.016541375 0.03514448 -0.024437418
000370 69 9d c1 bc ef 6d 4c 3b a8 7a 82 3c eb 05 01 bc
       -0.02363463 0.0031193455 0.015927628 -0.007874946
000380 51 c9 18 3d 0c 5e 52 bc 57 39 73 3c 53 bf 8c bb
       0.037301365 -0.012839805 0.014845214 -0.0042952686
000390 be ae 1f 3c 7a 56 d6 3c d2 58 02 bd 42 35 9b 3c
       0.009746252 0.026164282 -0.031822987 0.018946294
0003a0 b8 51 51 3c a7 bc 55 bc 42 dc 80 bc 7a d8 3a bb
       0.012775831 -0.0130454665 -0.015730027 -0.0028510378
0003b0 0c 15 fa 3c d5 72 1d bd ff 62 21 3d 30 62 90 3d
       0.030527614 -0.03843959 0.03940105 0.07049978
0003c0 f2 31 81 bc fa 40 e5 bc 5b 31 1d 3c 13 2a 6f 3d
       -0.015770886 -0.027985085 0.009594287 0.058389734
0003d0 64 21 2b 3c b5 a6 d2 bc 36 7d ec 3c be 57 08 bd
       0.010444973 -0.025714258 0.028868299 -0.033286802
0003e0 b9 ed 9c 3b 3f 1e 81 3d 65 e0 e8 bc bc bb 7e 3c
       0.004789081 0.06304597 -0.028427312 0.015547689
0003f0 8f 57 6e bc dc 7a be 3c 66 c7 2f 3c 04 db 3d 3d
       -0.014547243 0.023251943 0.010728693 0.046351448

bias f4 [64]
000000 66 43 06 3c 34 ec c9 bc b1 5f 07 bc 92 fc 25 3d
       0.00819478 -0.024648763 -0.008262561 0.040524073
000010 06 3e 16 bd a0 85 c1 3c a6 5f a3 3c 20 ea 77 3d
       -0.036680244 0.023623288 0.01994307 0.060526013
000020 44 99 a8 3c 78 da 01 bc 0c 09 d6 bc 02 f0 31 3c
       0.020580895 -0.007925622 -0.02612736 0.010860445
000030 a2 ac cb 3c 4b 52 94 3c d8 0b 82 bd 0e 1e ff b9
       0.024862591 0.018105647 -0.06349915 -0.00048659783
000040 eb 0e 23 bc bc 94 db 3c 2e 4f 45 3c 08 72 cb bc
       -0.009952287 0.02680432 0.012042804 -0.024834648
000050 e0 98 b9 3c 71 3f 41 bd 2c af 46 3d 0f 93 41 3c
       0.022655904 -0.047179643 0.0485069 0.011814847
000060 40 a7 24 bd 2e e0 c4 bc e8 c0 41 3c 32 c3 a4 3c
       -0.040198565 -0.024032678 0.011825778 0.020112608
000070 a9 bc 9b 3b 3a 2f 20 3c c1 df d5 3c b8 d7 2b 3d
       0.0047527147 0.009776885 0.02610767 0.041953772
000080 82 27 89 bc 5c 5a aa 3c c9 67 8e bc ff ec 32 bc
       -0.016742472 0.02079504 -0.017383473 -0.010920762
000090 a9 85 04 3d 0f 5c 86 3d 0c ba 70 3d ab 88 0f bc
       0.03235403 0.065605275 0.058771178 -0.0087606115
0000a0 59 93 05 bd cc ef 9b 3d fa 2a a9 bb 2e f2 f5 3c
       -0.032611225 0.07614097 -0.005162594 0.030022707
0000b0 d2 30 4a bc 01 4f 65 bc f5 88 06 3d c5 7f 96 bc
       -0.012340741 -0.013995887 0.032845456 -0.018371472
0000c0 fb d3 e3 3c 4a b6 54 bc 9d 8f 36 bc b2 b0 ab bc
       0.027811041 -0.012982914 -0.0111426385 -0.020958278
0000d0 e6 5d c2 bb 69 32 38 3d 8f 56 7f bb 00 e6 0a 3d
       -0.0059316037 0.04496995 -0.0038961505 0.03391075
0000e0 24 ee 55 3b 79 a7 8c 3a 6a 90 21 bc 4d d1 f3 3c
       0.0032643164 0.0010731063 -0.009861091 0.029762888
0000f0 cc 84 88 3c 1c 2f b2 bc 28 fb 7b bc 83 3a b6 3c
       0.016664885 -0.02175098 -0.015379705 0.022244697

weight f4 [32, 64]
000000 f2 25 57 3c e2 90 dc 3d aa 9f af bd 1f d4 db 3d
       0.013131605 0.10769822 -0.085753754 0.10733818
000010 13 aa 1c bd e5 40 94 3d 45 97 83 3c 2a c2 8e bd
       -0.038248133 0.0723894 0.016063342 -0.069706276
000020 7d 63 00 3c e0 fe 43 3b 8c eb 85 3d 09 cd 4c 3d
       0.00783622 0.0029906556 0.065390676 0.050000224
000030 ac 75 93 bd 7d ff b2 3d 36 7b 53 bd c3 89 2b 3d
       -0.072001785 0.08740137 -0.051631175 0.041879427
000040 a2 dd 71 3d c5 d5 95 3d 5b fc 31 3d d9 45 6b 3d
       0.059049256 0.07316164 0.043453556 0.05743966
000050 5e 3f 67 3d e3 28 72 3d 7c d5 28 bc 8a 77 82 bd
       0.056456916 0.059121024 -0.010304805 -0.063704565
000060 22 b2 a1 3d b4 26 81 3d 38 f8 6b 3d b3 59 d1 3d
       0.07895304 0.0630621 0.057609767 0.10222187
000070 a0 e6 b7 3c 6f 53 a9 3d 97 13 85 3d 59 6d e8 3d
       0.022448838 0.08267867 0.06497877 0.113489814
000080 9b d4 89 3d c1 20 98 3d c0 76 40 3d 7a 63 ea bc
       0.067300044 0.07428122 0.04698825 -0.028611887
000090 12 a9 99 bc b4 7e bf 3d fa 79 05 bd 46 76 72 3d
       -0.018757377 0.093503386 -0.03258703 0.059194826
0000a0 8a a2 f8 bb f7 ba 0a bd 1c 1b 4b 3d 5e b5 7d bd
       -0.0075877355 -0.03386971 0.0495864 -0.061940543
0000b0 4e 19 8e 3d 25 0f 36 bd b8 96 ba bc b4 c5 46 3c
       0.0693842 -0.044448037 -0.022776946 0.012132097
0000c0 4b 2b a2 bb fe 5d 3f bd eb d1 78 3d 20 d9 9a bd
       -0.0049490086 -0.046720497 0.06074707 -0.075609446
0000d0 8e 71 c9 bd f0 02 8a 3c 4d 4e 7a bc 55 60 20 3d
       -0.09836112 0.016847104 -0.015277457 0.03915437
0000e0 cc 4c 40 bc b9 da 29 bd 17 49 97 bc 66 ae b1 bb
       -0.01173706 -0.041468356 -0.01846747 -0.0054224012
0000f0 47 dd be 3d 83 5e 76 3d c7 85 a7 3d 31 7d 84 3d
       0.09319549 0.060148727 0.08179813 0.06469191
000100 69 7d 3e 3c 61 55 2f bd d5 9f 5d 3d 9d 50 de 3c
       0.01162658 -0.042806033 0.054107506 0.027138049
000110 ad d3 08 bc a6 42 12 3d 77 5a 68 bb a9 05 b1 3d
       -0.008351249 0.035708092 -0.0035454312 0.08643658
000120 0e 61 c2 b8 38 67 88 3d e2 85 9f 3d c7 67 73 3c
       -9.268719e-05 0.066603124 0.07789208 0.014856285
000130 aa d4 56 bd d6 d2 b4 3c e8 05 60 bc a7 18 66 3d
       -0.052448906 0.02207319 -0.013673283 0.056175854
000140 ef 03 4c 3d e1 e8 03 bd 55 60 71 3c 9f cd 67 bd
       0.04980844 -0.032204513 0.01473244 -0.05659258
000150 8d 09 a3 3c 7b 80 8d bd ea e6 89 3d 2b ad 3c 3d
       0.019902015 -0.06909271 0.067334965 0.046063583
000160 fa b3 07 3d 5f 1d 77 3d e7 92 8f 3c e6 8f 9a 3d
       0.033130623 0.060330745 0.017526103 0.07546978
000170 5e 15 a7 3c d7 f9 8b bd c8 68 f1 3b 0b bb 88 3d
       0.02039593 -0.068347625 0.007367227 0.066763006
000180 6f f9 00 bd 41 b5 28 bd 3a bc 1e bd a0 df 50 bd
       -0.03148788 -0.041188482 -0.038753726 -0.050994515
000190 62 75 3d 3d 23 21 3d 3d b6 f3 6d bc 40 46 94 bb
       0.046254523 0.04617418 -0.014523437 -0.004524976
0001a0 34 97 05 bd 41 a8 84 bc 38 d3 8b bc f0 62 53 3d
       -0.0326149 -0.016193511 -0.01706849 0.051608026
0001b0 c3 1a 83 3d 3b a1 ac 3b 31 8b 8b bc 42 25 c1 3c
       0.06401589 0.0052682436 -0.017034145 0.023577336
0001c0 19 c4 5b 3d 34 ce 3c 3d dd 64 21 3d 7d 0d 06 bd
       0.05365381 0.046095088 0.03940283 -0.032727707
0001d0 af 43 38 3d ee df 4a 3d c9 5d f7 bc f9 d8 66 bd
       0.044986423 0.049529962 -0.030196087 -0.056359265
0001e0 c2 fd d1 3c 27 39 dc 3c c3 59 36 bd 5a 62 a9 bc
       0.025633696 0.026882721 -0.044519197 -0.02067678
0001f0 b3 2f b9 bc 90 55 8c bc 11 65 10 3d 59 33 55 bd
       -0.022605753 -0.017130643 0.035252634 -0.052050922
000200 76 81 74 3c 85 1a 5b bb 15 0e 12 bc 8a 24 19 bc
       0.014923444 -0.0033432555 -0.00891449 -0.0093470905
000210 b8 90 53 bc 82 77 3b bc 4c 69 4c bb 68 0d ed bb
       -0.012912922 -0.011442067 -0.0031190692 -0.007234264
000220 df 00 be 3b 70 b1 2c 3c 02 3e fe b9 cb 4b a3 bb
       0.0057984437 0.010540351 -0.00048492855 -0.0049834005
000230 a3 85 86 bc 9f 97 30 3c 10 3e ba bc b8 c9 eb 3b
       -0.016421145 0.010778337 -0.022734672 0.0071956776
000240 cb a8 0e 3c ff 13 2a 3c a4 ab 62 bc a0 6d fc bb
       0.008707236 0.010380744 -0.013834868 -0.007703498
000250 f3 b4 b5 bb e0 3d 2b 3d 05 93 ab 3b e0 47 56 bb
       -0.0055452525 0.041807055 0.005236032 -0.003269665
000260 3c ed 0e ba dd cf 15 3c 6c 1b 82 bb 1c 10 b7 3c
       -0.0005452221 0.009143797 -0.003970554 0.022346549
000270 50 4a f8 bb 98 ab ca bb f9 0b 26 3c 4a 2c 9b 3c
       -0.007577218 -0.0061850064 0.01013469 0.018942017
000280 71 36 40 bc b9 89 da 3c ee 40 37 3a 86 ba df 3b
       -0.01173173 0.026677 0.0006990571 0.0068276552
000290 2a 7e 52 bc 14 d3 5a 3b c1 b1 97 3c 22 e9 a4 3b
       -0.012847463 0.0033389973 0.018517377 0.0050326744
0002a0 07 91 38 3b b0 2c 8e 3c 53 c0 95 bc d7 a5 06 bc
       0.0028162615 0.017355293 -0.018280184 -0.00821825
0002b0 80 51 85 ba da d8 69 bb 88 25 32 3d 2c e1 f3 3b
       -0.0010171384 -0.0035682232 0.043492824 0.007442614
0002c0 e1 3f 50 bc 4a 3a 0f 3d f5 82 c4 3b 5a 09 9e bb
       -0.012710542 0.0349677 0.0059970566 -0.004822892
0002d0 17 c1 82 3a 1b e5 60 3d fb 9f 74 3b 1d 4d 13 bc
       0.0009975758 0.054905992 0.00373268 -0.008990553
0002e0 cf e4 98 3c dc d0 c8 ba 29 49 b2 3c f0 a5 ad 3b
       0.018663792 -0.0015321034 0.021763401 0.0052993223
0002f0 7e e5 68 3c 9e e5 ec bb 73 12 6c bc 95 8b 80 3c
       0.014214871 -0.007229521 -0.0144086955 0.015691558
000300 1a 30 d3 3a 81 3d 15 3d 3e 82 75 3d b6 a6 8f 39
       0.0016112358 0.036435608 0.05993866 0.00027399295
000310 0d c8 62 3d 8b ce 31 3a 10 42 00 3d 7c 47 65 bd
       0.055366565 0.00067827915 0.031313002 -0.055976376
000320 0d f6 5e bc e8 02 ba bb d0 bc 88 3c 73 be 67 bc
       -0.013608468 -0.005676616 0.016691595 -0.014144528
000330 9e 35 2f 3d 0b c1 a5 bb b9 8a 2b bc b2 d5 89 3c
       0.042775743 -0.005058413 -0.010470086 0.01682553
000340 b7 32 ca ba d7 88 95 bc f9 a0 03 3d a0 72 95 3c
       -0.0015426491 -0.018253727 0.032135937 0.018243134
000350 7d c8 90 bb b2 70 e3 ba f0 29 57 3d 38 24 dc bc
       -0.0044184313 -0.0017352311 0.05253023 -0.02687274
000360 55 75 38 bb 0a c6 cc 3c e6 3b 5e bd 7b 4f 80 bc
       -0.0028146107 0.024996776 -0.054256342 -0.0156629
000370 7f b9 31 3d ab a0 45 3d d8 8b c2 bc 84 c0 f1 3b
       0.043389793 0.048248928 -0.023748323 0.007377686
000380 71 89 b8 ba b6 5e e1 bc f0 b4 6c 3c e4 00 6a 3d
       -0.0014079047 -0.027510982 0.014447436 0.057129756
000390 1f 95 21 bd 77 31 50 bd ef 7a 9a 3d 42 f8 c9 3c
       -0.039448854 -0.050828423 0.07542979 0.024654511
0003a0 b4 d5 0e bc 21 e2 68 3d ed 81 87 3d cc ec 8d 3d
       -0.008717943 0.05685628 0.06616578 0.06929931
0003b0 b7 b4 e4 bc ff 63 47 3c 09 7a 96 3d 48 d7 b8 3c
       -0.027918203 0.012169837 0.07347495 0.022563592
0003c0 44 c2 19 bd 17 03 05 3d 58 12 5b 3b 2c eb 3f bd
       -0.03753878 0.03247365 0.0033427682 -0.046855137
0003d0 5c cf ae 3c 2f 9b 5b 3d 75 02 84 3d 78 56 15 3d
       0.021339111 0.05361479 0.06445781 0.036459416
0003e0 7a 73 2a 3d 16 2d 69 3b dd 0b 15 3d 38 f1 75 bc
       0.041614033 0.0035579852 0.036388267 -0.015011124
0003f0 fd 37 11 3d 7a 66 c3 bc d5 d0 a1 ba 41 76 39 3c
       0.035453785 -0.023852576 -0.0012345562 0.011319698

bias f4 [32]
000000 7a 79 5a 3d 8b 01 8d 3d ec e1 2c 3d b8 c6 41 3d
       0.053338505 0.0688506 0.042207643 0.047308654
000010 4b c3 ab bd f1 2a 87 3c 97 d6 36 3c 1b c2 56 3d
       -0.083868586 0.016499968 0.011159561 0.052431207
000020 ca 53 fb bc f8 82 13 3c 5b 73 0a 3e 6a d3 7b bc
       -0.030679602 0.009003393 0.13520567 -0.015370229
000030 b8 48 9a 3d fa e9 bf bd 12 85 57 bd 63 fa 9f 3d
       0.07533401 -0.09370799 -0.05261714 0.07811429
000040 36 44 50 bd c3 7f be 3d d5 9e 70 bd ea ce 9f 3c
       -0.0508463 0.09301712 -0.058745224 0.019507844
000050 7e 0b a7 3d 29 93 41 bd b1 75 ac 3d c6 18 2e bd
       0.08156489 -0.047259483 0.08420885 -0.042504095
000060 4c 82 15 bd 07 32 4d bd 18 69 1d bc 85 9f c0 3d
       -0.036501214 -0.050096538 -0.009607576 0.09405426
000070 99 df aa 3d 13 36 db 3d b4 3f 0a bd 67 1e c0 3d
       0.08343429 0.10703673 -0.03375216 0.09380799

weight f4 [16, 32]
000000 04 ff d0 3d 91 95 b9 3d ff 32 c6 3d 1a fa a7 bd
       0.1020489 0.09061731 0.096776955 -0.08202
000010 05 14 a9 bd 2c 75 01 be 6d bb 74 bd ce 6d 2b bc
       -0.082557715 -0.12642354 -0.059749056 -0.010463191
000020 f2 5b 3f bd 8f 4d d8 3d 05 ee 1a 3e 14 67 92 3d
       -0.046718545 0.10561668 0.1512986 0.07148567
000030 d9 6c 4d 3e 03 62 a5 bd c3 c2 1b 3d f2 e2 eb bd
       0.20061053 -0.08075335 0.038027536 -0.11517896
000040 bf bb 55 bd 44 69 d8 bd ef 76 c4 3d d1 2c bd 3d
       -0.052181 -0.10566953 0.09592997 0.09237064
000050 52 f9 08 3e 87 d7 1b 3e 75 3a 3c 3e cb 3b da 3c
       0.13376358 0.15218936 0.18381675 0.02663984
000060 1b 22 d5 bd 1d a8 c9 bd 9f 16 d4 bd 4a 0f 78 3c
       -0.10406896 -0.09846518 -0.10355877 0.015140364
000070 5a ab 41 3c dc 2a 2c 3d 54 c8 44 3d e5 5d 37 3e
       0.011820639 0.04203306 0.04804261 0.17906912
000080 30 49 53 3d 9d 61 0b bd 53 13 5f bb 14 1b 0a 3d
       0.05158347 -0.03402864 -0.0034038618 0.03371723
000090 a6 6c 87 3b a5 27 15 3d d3 54 84 3b c6 b2 96 bc
       0.004132825 0.03641476 0.004038432 -0.018395793
0000a0 e4 47 cb bb 5a 35 7b bc 08 2f 94 bc 7f 95 78 3a
       -0.0062036384 -0.015332544 -0.018088832 0.0009482726
0000b0 d9 1f e9 bd ee c6 7c ba e2 3b 0d bc d8 f4 cf 3c
       -0.113830276 -0.000964268 -0.008620234 0.025385305
0000c0 ae 8d 9d 39 26 4e 2d ba 20 6b 67 bc 95 d2 ef 3a
       0.00030050933 -0.00066110713 -0.014124662 0.0018297011
0000d0 cd 7c cc 3c 79 e5 eb 3b 99 ee 9e bd 01 c9 a5 ba
       0.024961853 0.007198986 -0.07760353 -0.0012648405
0000e0 8a 9b a5 3a 1c 7d 02 3d a2 1a 5d 3c 6f b0 55 3d
       0.0012634855 0.031857595 0.013495119 0.052170213
0000f0 20 a0 43 3c 64 1b c4 bc a1 fe 5c ba 08 c8 39 3c
       0.011940032 -0.023938842 -0.00084302766 0.011339195
000100 6d 04 cd bc 5f b7 80 bc 2c eb 62 3b 84 7e c2 bb
       -0.025026524 -0.015712438 0.0034625037 -0.005935492
000110 0a 4f 8b bb 8c 11 83 bc 69 3d 43 ba b9 d5 68 3d
       -0.0042513655 -0.015999578 -0.00074478105 0.056844447
000120 19 3a 83 ba 5b a3 1b bc 56 fb 95 3c dd 3b 16 37
       -0.0010011821 -0.009499396 0.018308323 8.954635e-06
000130 ab 6d 07 bd ad e0 22 3b fc 0b b5 3a 00 a8 22 bc
       -0.033063572 0.0024853155 0.0013812776 -0.00992775
000140 43 ab 92 ba c3 d8 fd bb 44 8d cc bb ad 06 ea bb
       -0.0011189956 -0.0077467873 -0.006242426 -0.007141909
000150 3b 7b 13 3d c3 76 f9 39 f5 d6 3e bc a6 07 06 bb
       0.036006194 0.00047581465 -0.011647929 -0.0020451336
000160 ac 89 ac bb 66 c4 09 3c f8 c1 13 b9 32 78 5c bc
       -0.005265435 0.008408641 -0.00014091271 -0.013456391
000170 a7 0a 0a bc dd 8c b5 bc c3 f5 80 ba bb c7 b7 3b
       -0.008425391 -0.022161895 -0.0009838868 0.0056085265
000180 7e be 81 3c f2 41 10 bd 8f 13 4a 3d f9 70 c7 bb
       0.015837904 -0.03521914 0.04933506 -0.0060864654
000190 8d f0 70 bc 6e 09 99 3c 63 34 4d 3b 5b 73 4c 3d
       -0.014705789 0.018681254 0.0031311742 0.0499147
0001a0 3b da 81 3c e9 9f c0 3c 33 ef d5 3c 19 8f e6 3b
       0.01585113 0.023513751 0.026115036 0.0070361015
0001b0 0b fa d4 bc b5 41 b1 39 47 a4 78 3b 1b 12 c7 bc
       -0.025998136 0.00033809026 0.0037939714 -0.024300626
0001c0 6c a9 bc 3b 78 dd a1 3c 4b 57 7d 3d 58 a0 4d 3d
       0.0057575013 0.019758925 0.061850827 0.050201744
0001d0 f3 93 02 bc 14 35 f1 3b 06 27 1f bd ae 6d 69 3d
       -0.007969844 0.0073610637 -0.038855575 0.056989364
0001e0 b1 c4 9a bc f1 bb 73 3d 22 fb 1d 3d 23 bb ae bc
       -0.018892618 0.059505407 0.038569577 -0.021329468
0001f0 2c 3c ec bc df 70 8d bc 94 bb 88 ba e2 51 39 bc
       -0.028837286 -0.017265735 -0.0010431879 -0.011311026
000200 a8 b9 e5 bc eb 26 03 bd 6f e8 13 3c 46 d4 51 3d
       -0.02804263 -0.032019537 0.009027584 0.05122783
000210 62 bf 82 3c 28 6c 09 bc 23 a8 26 38 e5 5a b6 bb
       0.015960399 -0.008387603 3.9734074e-05 -0.0055650347
000220 15 96 8c bc 1f 75 5f 3d c7 eb ce bc 6b 3b 98 ba
       -0.017161408 0.054555055 -0.025258912 -0.0011614388
000230 24 99 1e 3d a3 d5 0c bb 5e d8 8f bb 83 66 03 3d
       0.038720265 -0.0021489642 -0.0043898067 0.032080185
000240 28 0f e8 39 16 1c 40 3c 90 53 12 3c a8 58 2f 3c
       0.0004426178 0.011725446 0.008931056 0.01070229
000250 43 0a 3d bd 2a fc 09 3c 0c 26 35 3d ad b6 76 bb
       -0.046152364 0.008421937 0.044225737 -0.0037645504
000260 53 e7 a1 bc 7e 8a 69 3b 7a 5e b0 3c 63 00 b2 3a
       -0.019763624 0.0035635526 0.021529425 0.0013580438
000270 42 78 95 bc ce d0 02 bd 8b 40 8d 39 d4 01 88 3b
       -0.01824582 -0.031937413 0.00026941704 0.0041506086
000280 02 2f c6 bc 1a c4 09 3d b2 f7 a6 3a 9d 66 92 bd
       -0.024192337 0.033634283 0.0012738614 -0.07148478
000290 c8 58 89 3c 29 7b ac bb 00 37 5f 3b 46 51 da 3c
       0.016765967 -0.0052637053 0.0034059882 0.026650082
0002a0 50 27 0f bc a4 dd 9f bb ca 8b 0b 3d 2e 1c a2 ba
       -0.0087374 -0.0048787165 0.03406886 -0.0012368017
0002b0 15 14 21 bd 82 4a ed ba 16 17 2c bc 78 e0 a1 3c
       -0.039325792 -0.001810387 -0.010503551 0.019760355
0002c0 a3 d0 16 3c 52 f6 72 3b 7a 60 87 bc 44 fc d2 3a
       0.009205016 0.0037073088 -0.016525496 0.001609691
0002d0 2d f8 3d bd 5b 10 87 bc cb ac 82 bd a4 f7 78 bb
       -0.046379257 -0.016487291 -0.06380614 -0.0037989402
0002e0 be 0a 90 3c c9 02 1d 3d 20 a3 18 3d 82 c2 cf bb
       0.017583247 0.038332734 0.037264943 -0.006340326
0002f0 f0 6b fa 3c df 7c 17 bc 33 44 b6 bb b3 fc 18 3b
       0.030569047 -0.00924608 -0.005562329 0.002334398
000300 df 0f 18 3e 76 85 22 bd e1 4a 94 bd 60 b7 24 3e
       0.14849804 -0.03967806 -0.072408445 0.16085577
000310 b5 ad 09 3e be 11 04 3e bc ef 0d 3d 27 10 1f 3e
       0.1344517 0.12897393 0.034652457 0.15533505
000320 60 8c ad bc a0 bd 04 be 8c c7 a5 3b fb 49 a0 bb
       -0.0211851 -0.12962961 0.005059188 -0.0048916317
000330 7f 93 19 3e 78 bd 97 3c e3 21 5e 3d 49 a0 3a bc
       0.14997672 0.018522963 0.054231536 -0.011390754
000340 54 eb 52 3c 2e ee da bc c4 26 03 bd 8e e6 b3 bd
       0.012873489 -0.026724901 -0.03201939 -0.08784209
000350 fb 9a c8 3b de 99 04 3d 15 b6 b9 3d 6f 44 51 3d
       0.0061219907 0.0323733 0.090679325 0.051090654
000360 30 ae 77 3d 1e cd e5 bd 28 53 87 3d 19 ee 3d bc
       0.060468853 -0.112207636 0.06607658 -0.011592411
000370 83 6a 53 bd 5a f0 ec bd 03 10 69 3d fe 65 d9 3c
       -0.05161525 -0.11569281 0.056900036 0.026537891
000380 79 d4 b7 b0 bc 39 cc a6 96 0d 8e 86 c1 a5 e0 ac
       -1.3375391e-09 -1.4170992e-15 -5.3434426e-35 -6.3848653e-12
000390 a6 ba a6 18 9d c3 a2 98 0a 08 1f 00 b3 46 55 a2
       4.309846e-24 -4.2073537e-24 2.849784e-39 -2.890431e-18
0003a0 52 e6 90 02 25 c3 d0 a6 d8 3a f7 2a d6 4d 95 00
       2.1291096e-37 -1.4485793e-15 4.3916845e-13 1.3711411e-38
0003b0 f9 a0 da b3 bf ee 14 80 d2 01 81 09 91 ec c1 9f
       -1.0180697e-07 -1.922356e-39 3.1057332e-33 -8.2130046e-20
0003c0 ef 45 9e 00 44 62 2f ab fa ce 53 9d bc 0a ac a1
       1.4535096e-38 -6.230886e-13 -2.8032622e-21 -1.1658015e-18
0003d0 b9 03 cd a8 c0 9c 52 0b db 06 aa ae 1a a0 df 93
       -2.2761186e-14 4.0562454e-32 -7.731923e-11 -5.6450987e-27
0003e0 35 a2 bb a0 fc 04 79 10 e5 9f 2c a2 2d 37 6d ad
       -3.1786372e-19 4.911043e-29 -2.3394994e-18 -1.3484142e-11
0003f0 3d 51 72 a3 a8 1d 1f a7 ce 86 2d 80 e3 3a 04 a4
       -1.3136049e-17 -2.208176e-15 -4.180956e-39 -2.8672816e-17

bias f4 [16]
000000 39 9c cc 3c 7a 4e ee 3d 25 a6 57 3a c4 6a d0 3b
       0.024976837 0.11636062 0.00082263566 0.0063603837
000010 b9 3f 41 bd da f2 8a 3d 97 85 07 3e ff 6e b3 b2
       -0.04717991 0.067846015 0.13234554 -2.0888818e-08
000020 4f 3a 14 3e fa 00 79 bc 28 71 a3 3d 93 2f 46 3e
       0.14475368 -0.015197987 0.07980567 0.19354086
000030 2f dd 7c bd 6b f8 c6 bd 6b 04 7f bd 6a b1 25 bd
       -0.061734375 -0.09715351 -0.062260073 -0.0404524

weight f4 [2, 16]
000000 63 df 46 be ab da 14 3e 9d d4 80 bb d9 d8 7a 3d
       -0.19421153 0.1453654 -0.0039315955 0.06124196
000010 84 54 d1 bd 85 72 0b 3e 94 38 f3 bd dd ac 20 39
       -0.10221198 0.13617904 -0.11876026 0.00015323186
000020 9a a4 5e 3e 2f 1f 84 3c 08 7b 11 3e 99 f8 97 be
       0.21742478 0.01612815 0.14207089 -0.29681852
000030 87 6f 87 bd b0 68 ce 3d 2a 5c d3 bd 1e 8c 19 3e
       -0.06613069 0.10078561 -0.10320313 0.14994857
000040 3e 75 59 3e 46 15 c7 3d fe 34 4c 3c 5a 2e 54 bd
       0.2123613 0.097208545 0.012463806 -0.051802017
000050 2a b9 10 be a0 06 97 3d 60 3b b3 3d 84 5f 2c 39
       -0.14133134 0.073743105 0.08751559 0.0001643878
000060 ee 41 26 3d 85 9d 85 3c 6e a2 07 be b3 de a1 3d
       0.04059022 0.016310463 -0.13245556 0.07903805
000070 b1 12 9d 3d a4 4c a6 bc ed a4 40 3e bb 71 3c be
       0.07669581 -0.020300217 0.18812914 -0.1840276

bias f4 [2]
000000 95 be 2a 3e ae 7e 0b be
       0.16674264 -0.13622543
