data_analysis/models/goals_home_predictor_v1.pth (torch, 75648 bytes, 8 tensors)

weight f4 [64, 230]
0.018232526 -0.032253053 0.037667662 0.0028400137 -0.04399745 -0.0007042229 0.016093176 0.01216944
0.026667317 0.03467992 -0.035376992 0.046690576 -0.023074254 -0.013519087 -0.000117407944 -0.0058365515
0.017789802 -0.011493612 0.005413499 -0.0070833503 -0.030293867 0.009832682 -0.004995868 -0.0154410815
0.0132929245 -0.028808929 0.029201476 0.02536546 -0.006557657 0.00065521215 0.02815477 -0.017333131
-0.027275542 -0.013348305 0.00096473517 -0.0012591437 -0.023226226 0.031690672 -0.013448326 -0.025809221
0.03167112 -0.030783901 -0.03944402 -0.015002068 0.018091507 0.0020966611 0.008538814 -0.013738289
-0.023991149 -0.03357179 0.009738171 0.008870997 -0.04125505 0.008549543 -0.03645977 0.011251593
0.030471187 -0.005213443 -0.021810926 -0.008721583 -0.02837748 0.045480855 -0.018978577 0.013571253
-0.005791305 -0.032193266 0.0063698525 -0.011107994 0.004029532 -0.034913816 -0.011374594 0.023634395
-0.0008583834 0.0038286557 0.040489748 0.029145125 -0.042884618 -0.011483429 -0.03331386 -0.04139273
0.014133066 -0.037662804 0.006999026 -0.031466834 -0.00025732268 -0.03425928 0.006115817 -0.0012687565
-0.024517504 -0.039065644 0.048936795 0.031632345 -0.03373507 0.02065187 -0.038446233 0.0125798285
-0.047018677 0.02201345 -0.024262056 -0.045633856 -0.026671208 0.014801066 -0.004068844 -0.020530313
-0.016820105 0.0062995586 -0.00967883 -0.035057772 0.044515062 0.02529962 -0.023029376 0.017051838
0.041142356 -0.03727807 0.026331734 0.02097625 0.0014663191 0.012357171 0.0034294417 0.060933232
0.021467416 0.015485707 0.026577799 0.04447831 -0.023276016 0.031756483 -0.0058814813 -0.033123806
0.017672688 0.0034605567 0.0093264105 -0.0036347578 0.039214782 -0.019552235 -0.013036547 -0.013735957
0.045624148 0.03670001 -0.0010463091 -0.007951051 -0.029691447 -0.02123716 0.037166372 -0.030502973
-0.020031065 0.0064786263 -0.05005622 -0.0032881976 0.023420827 -0.006515572 -0.045653183 -0.022548657
-0.03623181 -0.03927756 0.0028189868 -0.050848477 0.019296432 -0.004824311 0.01947354 0.059769306
-0.0050719865 0.0059746737 0.06669103 0.04899494 -0.016983857 -0.045716602 0.007018141 0.036859866
0.018498013 -0.02642733 0.020014549 0.052920572 0.006503781 0.006655504 0.042453524 -0.028539969
-0.016006665 0.0009090116 -0.030699482 0.013418764 -0.0041007325 0.034656327 -0.023703197 -0.014307127
-0.035275638 0.007058445 0.035003424 -0.002055 -0.021778991 0.021091206 -0.013813022 -0.020796228
-0.017512854 -8.675674e-05 0.015354035 0.014225287 -0.03388115 -0.0027452295 -0.022575114 0.013756622
0.010632393 -0.026594581 0.029084152 0.042423237 0.05226958 0.013636855 0.013876866 -0.0037874866
-0.008641361 -0.043742757 0.03433011 0.000105983076 0.05414213 -0.024987191 0.01546358 -0.02655307
0.044919316 -0.018813996 0.026988337 0.020934708 0.014874428 -0.030028947 -0.03361482 -0.034104798
-0.048023492 -0.031335272 -0.016885255 0.038408093 -0.021044584 0.040904958 -0.03207944 0.028818073
-0.05651659 -0.0009791274 -0.026659554 0.012015175 -0.038663156 0.037665345 0.04588458 -0.07426302
0.020166883 0.022146517 0.04996702 0.042561095 -0.01130231 0.05411245 -0.0075351885 0.018322818
-0.0019179519 0.057834283 0.010403038 0.029702883 -0.011275548 -0.035090446 -0.016440427 0.017130172
00000000: 615c 953c c71b 04bd 6849 1a3d 861f 3a3b
00000010: ac36 34bd 999b 38ba d6d5 833c 5562 473c
00000020: 6b75 da3c 880c 0e3d 77e7 10bd 9e3e 3f3d
00000030: 3806 bdbc 297f 5dbc e938 f6b8 8b40 bfbb
00000040: ebbb 913c b44f 3cbc b963 b13b 731b e8bb
00000050: d82a f8bc 4219 213c 61b4 a3bb 97fc 7cbc
00000060: 91ca 593c b400 ecbc ef37 ef3c 3acb cf3c
00000070: 9de1 d6bb 8bc2 2b3a d5a4 e63c 36fe 8dbc
00000080: f570 dfbc d9b2 5abc 48e6 7c3a da09 a5ba
00000090: ed44 bebc 14ce 013d 5e56 5cbc dc6d d3bc
000000a0: 94b9 013d 852e fcbc 0d90 21bd 3ccb 75bc
000000b0: a434 943c 2368 093b 62e6 0b3c 8f16 61bc
000000c0: 1689 c4bc 9382 09bd d98c 1f3c a857 113c
000000d0: 0efb 28bd 6213 0c3c d756 15bd 9a58 383c
000000e0: b69e f93c 88d5 aabb d4ac b2bc f8e4 0ebc
000000f0: e477 e8bc 224a 3a3d f678 9bbc f659 5e3c
00000100: fdc4 bdbb 16dd 03bd 32ba d03b 4efe 35bc
00000110: 2a0a 843b ca01 0fbd 815c 3abc eb9c c13c
00000120: 2305 61ba 2fea 7a3b 94d8 253d c2c1 ee3c
00000130: c8a7 2fbd fe24 3cbc 1d74 08bd 6c8b 29bd
00000140: 608e 673c 5044 1abd 1658 e53b 5ee3 00bd
00000150: 44e9 86b9 7553 0cbd 3167 c83b 674c a6ba
00000160: efd8 c8bc 4c03 20bd f371 483d eb90 013d
00000170: c92d 0abd 1c2e a93c cc79 1dbd a01b 4e3c
00000180: a896 40bd 8d55 b43c 38c1 c6bc 91ea 3abd
00000190: 947d dabc 2c80 723c f053 85bb 302f a8bc
000001a0: 51ca 89bc 876c ce3b f593 1ebc bd98 0fbd
000001b0: 6d55 363d 2641 cf3c 1aa8 bcbc 4cb0 8b3c
000001c0: e384 283d e4b0 18bd a6b5 d73c 62d6 ab3c
000001d0: 8131 c03a bb75 4a3c 7cc0 603b 2095 793d
000001e0: 6fdc af3c c3b7 7d3c afb9 d93c e32e 363d
000001f0: 58ad bebc 1613 023d 71b9 c0bb d4ac 07bd
00000200: 50c6 903c 82ca 623b cdcd 183c 1e35 6ebb
00000210: ae9f 203d 022c a0bc 3e97 55bc c80c 61bc
00000220: 63e0 3a3d c052 163d 4f24 89ba 2045 02bc
00000230: 7a3b f3bc 8df9 adbc c43b 183d 5fe1 f9bc
00000240: 3018 a4bc a84a d43b c007 4dbd cd7e 57bb
00000250: 09dd bf3c 9480 d5bb d5fe 3abd f6b7 b8bc
00000260: ce67 14bd 82e1 20bd c0be 383b 7e46 50bd
00000270: 8d13 9e3c 4115 9ebb f986 9f3c a9d0 743d
00000280: e832 a6bb 32c7 c33b 4f95 883d ebae 483d
00000290: bb21 8bbc 5541 3bbd 6ff8 e53b 5ffa 163d
000002a0: 2589 973c 217e d8bc 8df5 a33c 3ec3 583d
000002b0: ab1d d53b 6a16 da3b bfe3 2d3d a7cc e9bc
000002c0: 6920 83bc bc4a 6e3a 7b7d fbbc 60da 5b3c
000002d0: 705f 86bb cbf3 0d3d 352d c2bc 7168 6abc
000002e0: 307d 10bd 874a e73b c05f 0f3d 2ead 06bb
000002f0: db69 b2bc 77c7 ac3c 0350 62bc da5c aabc
00000300: 1e77 8fbc 2cf1 b5b8 7e8f 7b3c 2e11 693c
00000310: f6c6 0abd 4fe9 33bb 72ef b8bc 7463 613c
00000320: 7d33 2e3c e1dc d9bc e341 ee3c fdc3 2d3d
00000330: a118 563d 1e6d 5f3c cb5b 633c 7b37 78bb
00000340: 7f94 0dbc 9b2b 33bd bb9d 0c3d 3b43 de38
00000350: 23c4 5d3d f0b1 ccbc f55a 7d3c d385 d9bc
00000360: 51fd 373d cf1f 9abc a516 dd3c 447f ab3c
00000370: dfb3 733c 44ff f5bc b2af 09bd 79b1 0bbd
00000380: 48b4 44bd 6a59 00bd f252 8abc ce51 1d3d
00000390: b165 acbc f58b 273d bb65 03bd e113 ec3c
000003a0: f17d 67bd 1056 80ba 2365 dabc 4cdb 443c
000003b0: 425d 1ebd fa46 1a3d 78f1 3b3d 3617 98bd
000003c0: 0535 a53c 9d6c b53c 38aa 4c3d 8b54 2e3d
000003d0: 532d 39bc 04a5 5d3d bee9 f6bb bc19 963c
000003e0: c963 fbba a4e3 6c3d 8171 2a3c 7653 f33c
000003f0: 13bd 38bc 00bb 0fbd 13ae 86bc 9354 8c3c

bias f4 [64]
-0.011214035 0.037348118 0.042343687 -0.026425114 0.057262015 0.020035997 0.035650637 0.041589573
0.03762742 -0.031822726 -0.014981161 0.032283198 -0.010940066 0.007250683 0.012221906 -0.0050704274
-0.0134619875 0.0038219572 -0.007191899 0.050250426 0.05714772 0.010164257 -0.00399918 0.033094026
0.006989683 -0.0155279245 -0.017029 -0.016239863 0.056313183 0.030331394 0.0605642 0.05686136
-0.010710799 -0.02142396 0.04327188 -0.003204534 -0.002637509 0.0664332 -0.019689575 0.030807603
0.027145952 -0.021856854 0.022965157 0.038895957 -0.011886932 0.028918812 -0.023707313 -0.03855787
0.0154590225 0.025689485 0.020667557 -0.024242472 -0.01800394 0.055107992 -0.021844266 -0.02867037
-0.017272102 -0.030839046 -0.009054063 -0.009476946 0.04734026 0.045128632 0.0031254718 -0.029296046
00000000: 12bb 37bc 57fa 183d 9370 2d3d 7b79 d8bc
00000010: 938b 6a3d 8822 a43c 6706 123d d459 2a3d
00000020: 361f 1a3d 8c58 02bd 8b73 75bc 633b 043d
00000030: f63d 33bc 2397 ed3b 643e 483c d425 a6bb
00000040: ab8f 5cbc cd79 7a3b 06aa ebbb 64d3 4d3d
00000050: ba13 6a3d fc87 263c 8e0b 83bb 9a8d 073d
00000060: b609 e53b d668 7ebc 6780 8bbc 7609 85bc
00000070: a7a8 663d 8b79 f83c 2b12 783d 75e7 683d
00000080: 597c 2fbc 4d81 afbc db3d 313d 2903 52bb
00000090: 0fda 2cbb 210e 883d 084c a1bc 3a60 fc3c
000000a0: 3061 de3c 250d b3bc 6d21 bc3c 5e51 1f3d
000000b0: 68c1 42bc 25e7 ec3c d735 c2bc dbee 1dbd
000000c0: d747 7d3c c172 d23c 024f a93c 2698 c6bc
000000d0: 007d 93bc ebb8 613d bff2 b2bc 20de eabc
000000e0: 397e 8dbc 2ba2 fcbc 7e57 14bc 3145 1bbc
000000f0: dce7 413d cdd8 383d b7d4 4c3b 43fe efbc

weight f4 [32, 64]
0.003960119 -0.019296795 0.0018450667 -0.03579141 0.044081338 0.034595408 -0.019390175 0.009260169
-0.032870103 0.006198335 -0.012684185 0.011172434 0.016980782 0.0018222048 -0.03748161 -0.021415263
0.005876239 0.006796211 -0.00010126726 0.038799386 0.023087285 0.0034376774 -0.027235812 0.021030042
0.0032076284 0.03805248 0.0075972886 -0.023214981 -0.014791079 0.03795288 -0.007617491 0.0359421
-0.021409335 0.04804573 0.007305958 -0.005153809 0.03656816 -0.01201538 0.048773896 0.0013085507
-0.032490462 -0.04683033 -0.0005887855 -0.009551032 -0.056528598 0.04280208 0.024659006 -0.023390118
0.008557057 -0.026195105 0.07664092 -0.0038769622 -0.02611667 -0.0064018364 0.034686793 0.0066420822
0.02870563 0.037339795 0.033274103 -0.0036269883 0.034302957 -0.010399394 -0.025934003 0.044810273
-0.010473832 0.09778929 -0.012805503 -0.028011627 0.0016822354 -0.033363964 0.0390665 0.046281397
-0.05722391 -0.01911309 0.02913358 0.05875296 -0.010964525 0.06908012 0.0049228985 -0.052967332
0.052445382 -0.04410769 0.0043131313 0.034121644 -0.053213213 -0.030853579 -0.048081346 0.018573828
0.01249277 -0.008313009 0.06156566 0.026705489 0.043101046 -0.037940186 -0.023586113 -0.019939274
-0.012648389 0.0645156 -0.0009788612 0.019913917 -0.022250613 -0.05968675 0.053398635 0.032840017
0.043695554 -0.043923907 -0.026854662 0.067198224 -0.022526467 0.035998564 0.08305647 0.012086273
-0.047394883 -0.012602677 -0.014992778 -0.06680788 -0.026274871 -0.04362402 -0.028093087 -0.030866608
0.033963826 -0.012273774 0.08918311 0.033379856 -0.03893448 0.041568246 0.0024684835 0.044622764
-0.069581114 0.01853118 0.0021874218 -0.011491531 -0.03938761 -0.07402933 0.05181967 -0.02950058
0.10274038 0.07707657 0.08114326 0.022130348 0.06550215 0.067599736 0.07011035 -0.05729814
0.12159534 -0.09161261 0.05831869 0.10336268 0.0978189 -0.020196648 -0.008041671 -0.012182974
0.025807785 0.0146548515 0.015301003 0.09588252 0.05563344 -0.057001367 -0.01665454 0.111317664
0.0044891704 -0.0016004015 -0.017438317 0.0940398 0.10765806 0.0008563758 -0.065814056 0.028501859
-0.0345392 -0.053683642 -0.07925885 0.038531605 -0.027774626 -0.006086152 -0.014591846 0.07592634
-0.030130628 0.010268794 0.010435819 0.04514996 -0.07526817 0.05651527 0.10809741 0.0033462371
-0.033702586 -0.04214879 0.051002048 -0.07779383 0.027162552 0.06461564 0.09776703 -0.08752436
-0.0073495735 0.001602016 0.044488303 0.020229114 -0.09822422 0.06357583 0.064860895 -0.061191037
-0.018247103 0.031282157 -0.075352706 0.016918931 0.10922714 0.06374075 -0.058649916 0.099454455
0.130258 -0.051368933 -0.08675258 0.065312 -0.06835289 0.12284558 -0.011541895 0.015675865
-0.07159263 0.13454796 -0.048375003 0.036933657 0.0621265 0.08661072 0.119894214 0.128897
-0.041660577 -0.00011931257 0.049689487 0.11544682 0.13005617 0.104175 -0.0045368895 0.020498782
-0.06897682 0.05516531 0.020647813 0.057423268 0.044962287 0.051333703 -0.07163898 -0.001940138
0.11886326 0.059773576 -0.04797383 -0.06377274 -0.060501743 0.039650377 -0.06807935 6.0456066e-05
-0.06497883 -0.045349415 0.037743535 -0.0708767 0.07616897 -0.0010161083 0.065275356 0.012041918
00000000: e3c3 813b 5014 9ebc 2ad6 f13a 039a 12bd
00000010: a28e 343d eab3 0d3d 25d8 9ebc f7b7 173c
00000020: cda2 06bd 671b cb3b 54d1 4fbc 960c 373c
00000030: 481b 8b3c 0cd7 ee3a 5186 19bd 106f afbc
00000040: 778d c03b c0b2 de3b 725f d4b8 1bec 1e3d
00000050: 8c21 bd3c a84a 613b a31d dfbc 3247 ac3c
00000060: 1337 523b ebdc 1b3d adf2 f83b 582d bebc
00000070: 4856 72bc 7b74 1b3d 259c f9bb 0638 133d
00000080: a162 afbc 99cb 443d d166 ef3b 49e1 a8bb
00000090: 7fc8 153d 28dc 44bc 23c7 473d ad83 ab3a
000000a0: b814 05bd 29d1 3fbd ba58 1aba ef7b 1cbc
000000b0: 888a 67bd 3c51 2f3d af01 ca3c a29c bfbc
000000c0: e632 0c3c 1e97 d6bc eaf5 9c3d a214 7ebb
000000d0: a0f2 d5bc 7fc6 d1bb bd13 0e3d d3a5 d93b
000000e0: 1228 eb3c 9df1 183d 6d4a 083d c4b2 6dbb
000000f0: 4281 0c3d 3862 2abc 8c73 d4bc fa8a 373d
00000100: 6f9a 2bbc c045 c83d 2cce 51bc a478 e5bc
00000110: 747e dc3a a7a8 08bd 3204 203d 9091 3d3d
00000120: 9e63 6abd 0e93 9cbc 8ca9 ee3c f2a6 703d
00000130: 8da4 33bc e179 8d3d 4450 a13b 46f4 58bd
00000140: f8d0 563d 44aa 34bd 2b55 8d3b 23c3 0b3d
00000150: 19f6 59bd a5c0 fcbc f2f0 44bd 2428 983c
00000160: 7aae 4c3c 4933 08bc 462c 7c3d 78c5 da3c
00000170: b98a 303d 2b67 1bbd aa37 c1bc b057 a3bc
00000180: 303b 4fbc c120 843d 224d 80ba 8322 a33c
00000190: eb46 b6bc 187a 74bd 87b8 5a3d 4183 063d
000001a0: 1cfa 323d 8ee9 33bd 4ffe dbbc 399f 893d
000001b0: 6d89 b8bc 3b73 133d 8319 aa3d 8105 463c
000001c0: 2321 42bd 757b 4ebc 45a4 75bc 92d2 88bd
000001d0: 663e d7bc 1aaf 32bd 7923 e6bc f8db fcbc
000001e0: a71d 0b3d f017 49bc a2a5 b63d 51b9 083d
000001f0: c379 1fbd 7743 2a3d 48c6 213b 5cc6 363d
00000200: 8b80 8ebd b4ce 973c d95a 0f3b f946 3cbc
00000210: e754 21bd b09c 97bd dd40 543d 33ab f1bc
00000220: 8c69 d23d 52da 9d3d 702e a63d b44a b53c
00000230: fe25 863d bb71 8a3d 0496 8f3d 74b1 6abd
00000240: fa06 f93d 649f bbbd 94df 6e3d d0af d33d
00000250: 4755 c83d 7173 a5bc 36c1 03bc 199b 47bc
00000260: d96a d33c e71a 703c 0fb1 7a3c 0e5e c43d
00000270: e4df 633d 447a 69bd 1a6f 88bc 84fa e33d
00000280: e419 933b 90c4 d1ba cdda 8ebc f097 c03d
00000290: d47b dc3d 687e 603a 85c9 86bd bb7c e93c
000002a0: fa78 0dbd 61e3 5bbd 7752 a2bd 51d3 1d3d
000002b0: 9d87 e3bc 586e c7bb a312 6fbc 457f 9b3d
000002c0: 82d4 f6bc 723e 283c fffa 2a3c 2aef 383d
000002d0: 3326 9abd 8e7c 673d 2d62 dd3d 8b4c 5b3b
000002e0: b90b 0abd 36a4 2cbd 86e7 503d 5f52 9fbd
000002f0: 0084 de3c 3455 843d 153a c83d f93f b3bd
00000300: b1d4 f0bb bdfa d13a 5e39 363d 87b7 a53c
00000310: c829 c9bd 0b34 823d cad5 843d 74a3 7abd
00000320: f37a 95bc b821 003d 8552 9abd 9299 8a3c
00000330: 7bb2 df3d 838a 823d e53a 70bd c7ae cb3d
00000340: 5a62 053e 3b68 52bd 56ab b1bd 4cc2 853d
00000350: 9afc 8bbd 7796 fb3d 371a 3dbc ac6a 803c
00000360: 289f 92bd f1c6 093e de24 46bd bf47 173d
00000370: 5b78 7e3d f660 b13d 198b f53d 93fd 033e
00000380: 48a4 2abd 7337 fab8 3487 4b3d 626f ec3d
00000390: 722d 053e b459 d53d 30aa 94bb 10ed a73c
000003a0: b843 8dbd 05f5 613d 9a25 a93c a934 6b3d
000003b0: 602a 383d 4a43 523d 75b7 92bd 3b4c feba
000003c0: 956e f33d 23d5 743d 3580 44bd 489b 82bd
000003d0: add0 77bd 6f68 223d 306d 8bbd 3592 7d38
000003e0: 9f13 85bd 4fc0 39bd f798 1a3d ce27 91bd
000003f0: 7afe 9b3d f02e 85ba 16af 853d 774b 453c

bias f4 [32]
-0.060656548 -0.039554574 0.041952915 0.054261588 0.043354508 0.0013480223 0.020779237 -0.009962308
0.08949514 -0.0418706 -0.08283356 0.06484151 0.0013212706 0.04029546 -0.00059301965 -0.09192535
-0.07024027 0.111557856 0.05092557 0.059321184 0.099596575 -0.06142627 -0.055736158 -0.055627722
-0.035098106 0.14464512 0.026357055 0.087077275 0.052566577 -0.0005140035 -0.01742563 0.0029524912
00000000: 0073 78bd fa03 22bd d2d6 2b3d 6641 5e3d
00000010: 7f94 313d 1fb0 b03a 3839 aa3c f338 23bc
00000020: 3a49 b73d 8280 2bbd a4a4 a9bd a0cb 843d
00000030: 7c2e ad3a da0c 253d e074 1bba 5c43 bcbd
00000040: 21da 8fbd 7278 e43d 5597 503d c5fa 723d
00000050: 4af9 cb3d 1d9a 7bbd 994b 64bd e5d9 63bd
00000060: 08c3 0fbd da1d 143e c0ea d73c 9255 b23d
00000070: 0d50 573d 31be 06ba 32c0 8ebc 957e 413b

weight f4 [16, 32]
0.05520659 0.027425556 -0.057834134 0.03052159 -0.051113952 0.12358273 0.13334715 -0.11980119
0.11174428 0.048726384 0.09339058 -0.08919856 -0.030248407 -0.061203115 -0.033180594 0.005334979
-0.073248 0.04118496 -0.027118217 0.13752478 -0.04002858 0.08104745 0.13577364 -0.082389265
-0.08277153 0.064216785 0.0582642 -0.109404705 0.120436646 -0.008024303 0.034699652 0.05614998
-0.07753465 0.039495908 0.13987197 0.051346514 -0.092198685 -0.03986069 -0.13282192 0.1158807
0.031658664 -0.063076235 -0.10139991 0.20731278 0.06726683 -0.11733709 -0.118972704 -0.01362763
0.029331733 0.1616991 0.021072878 -0.03841272 0.13169655 -0.028499605 -0.11523612 0.1615434
0.14958403 0.19624859 -0.038510367 0.019263318 0.039544277 -0.031506114 -0.17361511 -0.110347256
-0.06218133 0.119689785 0.0006016615 -0.13981618 -0.12420783 0.058057778 0.1500017 -0.059565708
0.13601424 -0.019329198 -0.08180871 0.06631686 -0.067002796 -0.03478448 -0.02488017 0.039821032
0.039516725 0.1301314 -0.03615024 0.0051626326 -0.06951819 0.030119177 -0.10412015 -0.10296133
0.06816213 -0.15881293 0.12254837 0.09963179 0.13881293 -0.003984788 0.10962947 -0.047003176
0.058213364 0.104203425 -0.10294804 0.16751222 0.12824693 -0.030842531 -0.086994395 -0.015578733
0.09087294 -0.006320071 -0.10596662 0.076942906 0.0026838405 -0.094704226 0.03369482 -0.07571787
-0.015953002 0.17071979 0.06302615 -0.06443737 -0.049338426 0.066656746 -0.040233757 0.14226066
0.15474275 0.18908387 -0.052810404 0.056507736 0.08234362 -0.07758731 -0.13121668 -0.020317055
-0.014163906 -0.021644315 -0.09297586 -0.038452696 0.04728903 -0.005051587 0.04213635 0.04853187
0.00042037858 -0.0010876697 -0.002242373 0.037503365 0.07750495 -0.01169437 0.012408667 0.013500377
0.0012460721 -0.037219916 -0.0049801925 0.011923868 -0.09312181 0.015027703 0.011208452 -0.009439992
-0.0067398306 0.09179062 -0.012582114 -0.09241389 0.006044265 -0.021562165 0.011671785 0.003241025
0.010227502 -0.065917164 0.085900605 -0.019897157 0.025834512 0.004136773 -0.047252964 0.05879754
0.09527917 0.0069055757 0.094829135 -0.01702504 -0.0436418 -0.0104832025 0.018376237 0.001962441
0.044025455 0.10428052 0.057835553 0.01850415 -0.11259866 -0.010878701 0.011637866 -0.08302284
-0.051289137 -0.11627137 0.046103254 0.09468748 -0.015460758 -0.005410802 0.02385357 -0.06713231
-0.06805711 0.005101678 -0.024933547 0.103394434 -0.005640067 -0.061145823 0.13133775 0.030484313
0.16081965 0.0011905145 0.12346716 -0.020735184 -0.15242423 0.13692416 0.009195933 0.0017425321
0.17440194 -0.005262376 0.00010373005 -0.08914117 -0.033075027 0.074132 -0.035390783 -0.12608077
-0.019930793 -0.028357409 -0.036653385 0.10730346 0.16170186 0.05150647 0.13738073 0.07361325
0.039926853 -0.072857074 0.042365894 0.12379761 0.04717084 0.13209903 -0.026513109 0.13179475
0.05161027 0.0037124997 0.07014995 0.074234866 -0.034214888 0.075609244 -0.03895408 -0.022530984
-0.058026504 0.08650626 -0.074954554 -0.06323352 0.13544202 -0.03735066 -0.08449683 0.1715823
-0.05986778 0.12032147 -0.004972928 0.18302588 0.066332676 -0.025594162 0.0104939295 -0.014228359
00000000: 4e20 623d 8fab e03c 7ce3 6cbd 6a08 fa3c
00000010: dd5c 51bd f118 fd3d 288c 083e 545a f5bd
00000020: 2fda e43d 5195 473d 8f43 bf3d bcad b6bd
00000030: 82cb f7bc 1eb0 7abd 60e8 07bd 0cd1 ae3b
00000040: 0c03 96bd 90b1 283d 0627 debc 4cd3 0c3e
00000050: 02f5 23bd 35fc a53d 3f08 0b3e b4bb a8bd
00000060: 1f84 a9bd 1784 833d 71a6 6e3d 930f e0bd
00000070: 7da7 f63d 5e78 03bc 3921 0e3d 85fd 653d
00000080: 7dca 9ebd 76c6 213d 993a 0f3e b950 523d
00000090: aad2 bcbd f644 23bd 7802 08be dc52 ed3d
000000a0: 84ac 013d 1d2e 81bd c2aa cfbd cd49 543e
000000b0: 31c3 893d 6e4e f0bd f6a7 f3bd 6c46 5fbc
000000c0: 1a49 f03c 7394 253e 07a1 ac3c a856 1dbd
000000d0: 76db 063e 0178 e9bc ea00 ecbd a26b 253e
000000e0: 8e2c 193e 64f5 483e 0cbd 1dbd 1bce 9d3c
000000f0: 2ef9 213d 8e0c 01bd 29c8 31be befd e1bd
00000100: dab1 7ebd eb1f f53d d2b8 1d3a f92b 0fbe
00000110: ad60 febd fecd 6d3d 0c9a 193e 2cfb 73bd
00000120: 5147 0b3e 4458 9ebc 538b a7bd 22d1 873d
00000130: c338 89bd 2c7a 0ebd 80d1 cbbc 611b 233d
00000140: 4adc 213d 2a41 053e 4612 14bd 4d2b a93b
00000150: 8e5f 8ebd 7ebc f63c f23c d5bd 64dd d2bd
00000160: 9698 8b3d db9f 22be a4fa fa3d c00b cc3d
00000170: fa24 0e3e d392 82bb 6a85 e03d 6786 40bd
00000180: 2371 6e3d 9b68 d53d 6cd6 d2bd 5388 2b3e
00000190: 2a53 033e 7aa9 fcbc 1e2a b2bd f13d 7fbc
000001a0: 981b ba3d 9918 cfbb 0705 d9bd 3e94 9d3d
000001b0: 5fe3 2f3b 4af4 c1bd 9403 0a3d f811 9bbd
000001c0: dfaf 82bc 2bd1 2e3e db13 813d bdf7 83bd
000001d0: 1717 4abd 5583 883d 27cc 24bd c7ac 113e
000001e0: e274 1e3e 349f 413e b94f 58bd a874 673d
000001f0: c6a3 a83d 18e6 9ebd aa5d 06be f46f a6bc
00000200: ba0f 68bc 6b4f b1bc 216a bebd 9380 1dbd
00000210: 24b2 413d c887 a5bb 2a97 2c3d 5bc9 463d
00000220: 4266 dc39 2490 8eba c7f4 12bb 219d 193d
00000230: eaba 9e3d be99 3fbc b94d 4b3c af30 5d3c
00000240: 3e53 a33a e973 18bd e230 a3bb 545c 433c
00000250: a6b6 bebd c136 763c a8a3 373c 32aa 1abc
00000260: ccd9 dcbb b8fc bb3d 3625 4ebc 7e43 bdbd
00000270: f80e c63b 23a3 b0bc 043b 3f3c 6067 543b
00000280: 4191 273c 94ff 86bd a8ec af3d 5dff a2bc
00000290: e6a2 d33c c48d 873b 538c 41bd b0d5 703d
000002a0: ba21 c33d 2b48 e23b c735 c23d 1978 8bbc
000002b0: bec1 32bd bdc1 2bbc c389 963c 4c9c 003b
000002c0: 0954 343d 0691 d53d f9e4 6c3d 0496 973c
000002d0: 209a e6bd 943c 32bc bfac 3e3c e107 aabd
000002e0: 8f14 52bd af1f eebd c4d6 3c3d 82eb c13d
000002f0: 1e4f 7dbc 194d b1bb 9068 c33c aa7c 89bd
00000300: 8761 8bbd fa2b a73b 7041 ccbc 76c0 d33d
00000310: 50d0 b8bb 0b74 7abd 677d 063e 3dba f93c
00000320: e8ad 243e 0a0b 9c3a 5adc fc3d d5dc a9bc
00000330: 1915 1cbe d935 0c3e 8aaa 163c ad65 e43a
00000340: 6c96 323e 0270 acbb a689 d938 a58f b6bd
00000350: ae79 07bd 85d2 973d edf5 10bd 511b 01be
00000360: e745 a3bc cc4d e8bc dc21 16bd ebc1 db3d
00000370: 2c95 253e 73f8 523d 89ad 0c3e 8bc2 963d
00000380: 578a 233d 1736 95bd dc87 2d3d 9a89 fd3d
00000390: 3636 413d f844 073e 0532 d9bc 34f5 063e
000003a0: 4a65 533d 694d 733b c7aa 8f3d 7308 983d
000003b0: e924 0cbd 05d9 9a3d 508e 1fbd e692 b8bc
000003c0: 33ad 6dbd 322a b13d c681 99bd 9380 81bd
000003d0: 50b1 0a3e 01fd 18bd ad0c adbd 45b3 2f3e
000003e0: eb37 75bd 1a6b f63d f2f3 a2bb 236b 3b3e
000003f0: 6dd9 873d d9aa d1bc bbee 2b3c 101e 69bc

bias f4 [16]
0.11633272 0.08764938 0.11501983 -0.00904902 0.015977126 0.070015684 -0.022500116 0.05456387
0.13161814 0.09481166 0.072469294 -0.024223173 0.049338557 0.09658236 -0.11581056 0.012106001
00000000: d93f ee3d 8581 b33d 848f eb3d 5742 14bc
00000010: 76e2 823c 6264 8f3d 2a52 b8bc 5d7e 5f3d
00000020: e8c6 063e 9e2c c23d c86a 943d ad6f c6bc
00000030: 3a17 4a3d f9cc c53d 162e edbd 4058 463c

weight f4 [2, 16]
-0.21986383 0.26848218 -0.15412177 0.16778563 0.00029441618 -0.1435506 -0.12661593 0.23891689
-0.018673025 0.13694975 -0.18248579 0.14134072 0.11068435 0.097792976 -0.15708408 -0.14935009
0.036228824 -0.22545858 0.139481 -0.033032298 0.076711245 -0.042679254 0.22349083 0.111015566
0.2434671 0.03688853 0.16582112 -0.05030301 0.1143278 -0.08969785 0.18048455 -0.09574558
00000000: fc23 61be 7f76 893e 19d2 1dbe ffcf 2b3e
00000010: df5b 9a39 eefe 12be 9ba7 01be a1a6 743e
00000020: 2cf8 98bc 8e3c 0c3e 8edd 3abe 9fbb 103e
00000030: 7aae e23d af47 c83d a6da 20be 3bef 18be
00000040: ad64 143d 9dde 66be 1bd4 0e3e e04c 07bd
00000050: c91a 9d3d 71d0 2ebd c8da 643e 215c e33d
00000060: 714f 793e 6d18 173d 03cd 293e 870a 4ebd
00000070: b224 ea3d 82b3 b7bd f1d0 383e 4216 c4bd

bias f4 [2]
0.035562556 0.19763494
00000000: 0baa 113d d060 4a3e
